node {
  name: "dense_in"
  op: "Placeholder"
  attr {
    key: "dtype"
    value {
      type: DT_FLOAT
    }
  }
  attr {
    key: "shape"
    value {
      shape {
        dim {
          size: 256
        }
        dim {
          size: 13
        }
      }
    }
  }
}
node {
  name: "cat_in"
  op: "Placeholder"
  attr {
    key: "dtype"
    value {
      type: DT_INT64
    }
  }
  attr {
    key: "shape"
    value {
      shape {
        dim {
          size: 256
        }
        dim {
          size: 26
        }
      }
    }
  }
}
node {
  name: "unstack"
  op: "Unpack"
  input: "cat_in"
  attr {
    key: "T"
    value {
      type: DT_INT64
    }
  }
  attr {
    key: "axis"
    value {
      i: 1
    }
  }
  attr {
    key: "num"
    value {
      i: 26
    }
  }
}
node {
  name: "embedding/embeddings/Initializer/random_uniform/shape"
  op: "Const"
  attr {
    key: "_class"
    value {
      list {
        s: "loc:@embedding/embeddings"
      }
    }
  }
  attr {
    key: "dtype"
    value {
      type: DT_INT32
    }
  }
  attr {
    key: "value"
    value {
      tensor {
        dtype: DT_INT32
        tensor_shape {
          dim {
            size: 2
          }
        }
        tensor_content: " N\000\000\000\001\000\000"
      }
    }
  }
}
node {
  name: "embedding/embeddings/Initializer/random_uniform/min"
  op: "Const"
  attr {
    key: "_class"
    value {
      list {
        s: "loc:@embedding/embeddings"
      }
    }
  }
  attr {
    key: "dtype"
    value {
      type: DT_FLOAT
    }
  }
  attr {
    key: "value"
    value {
      tensor {
        dtype: DT_FLOAT
        tensor_shape {
        }
        float_val: -0.05000000074505806
      }
    }
  }
}
node {
  name: "embedding/embeddings/Initializer/random_uniform/max"
  op: "Const"
  attr {
    key: "_class"
    value {
      list {
        s: "loc:@embedding/embeddings"
      }
    }
  }
  attr {
    key: "dtype"
    value {
      type: DT_FLOAT
    }
  }
  attr {
    key: "value"
    value {
      tensor {
        dtype: DT_FLOAT
        tensor_shape {
        }
        float_val: 0.05000000074505806
      }
    }
  }
}
node {
  name: "embedding/embeddings/Initializer/random_uniform/RandomUniform"
  op: "RandomUniform"
  input: "embedding/embeddings/Initializer/random_uniform/shape"
  attr {
    key: "T"
    value {
      type: DT_INT32
    }
  }
  attr {
    key: "_class"
    value {
      list {
        s: "loc:@embedding/embeddings"
      }
    }
  }
  attr {
    key: "dtype"
    value {
      type: DT_FLOAT
    }
  }
  attr {
    key: "seed"
    value {
      i: 0
    }
  }
  attr {
    key: "seed2"
    value {
      i: 0
    }
  }
}
node {
  name: "embedding/embeddings/Initializer/random_uniform/sub"
  op: "Sub"
  input: "embedding/embeddings/Initializer/random_uniform/max"
  input: "embedding/embeddings/Initializer/random_uniform/min"
  attr {
    key: "T"
    value {
      type: DT_FLOAT
    }
  }
  attr {
    key: "_class"
    value {
      list {
        s: "loc:@embedding/embeddings"
      }
    }
  }
}
node {
  name: "embedding/embeddings/Initializer/random_uniform/mul"
  op: "Mul"
  input: "embedding/embeddings/Initializer/random_uniform/RandomUniform"
  input: "embedding/embeddings/Initializer/random_uniform/sub"
  attr {
    key: "T"
    value {
      type: DT_FLOAT
    }
  }
  attr {
    key: "_class"
    value {
      list {
        s: "loc:@embedding/embeddings"
      }
    }
  }
}
node {
  name: "embedding/embeddings/Initializer/random_uniform"
  op: "Add"
  input: "embedding/embeddings/Initializer/random_uniform/mul"
  input: "embedding/embeddings/Initializer/random_uniform/min"
  attr {
    key: "T"
    value {
      type: DT_FLOAT
    }
  }
  attr {
    key: "_class"
    value {
      list {
        s: "loc:@embedding/embeddings"
      }
    }
  }
}
node {
  name: "embedding/embeddings"
  op: "VarHandleOp"
  attr {
    key: "_class"
    value {
      list {
        s: "loc:@embedding/embeddings"
      }
    }
  }
    
  attr {
    key: "container"
    value {
      s: ""
    }
  }
  attr {
    key: "dtype"
    value {
      type: DT_FLOAT
    }
  }
  attr {
    key: "shape"
    value {
      shape {
        dim {
          size: 20000
        }
        dim {
          size: 256
        }
      }
    }
  }
  attr {
    key: "shared_name"
    value {
      s: "embedding/embeddings"
    }
  }
}
node {
  name: "embedding/embeddings/IsInitialized/VarIsInitializedOp"
  op: "VarIsInitializedOp"
  input: "embedding/embeddings"
}
node {
  name: "embedding/embeddings/Assign"
  op: "AssignVariableOp"
  input: "embedding/embeddings"
  input: "embedding/embeddings/Initializer/random_uniform"
  attr {
    key: "dtype"
    value {
      type: DT_FLOAT
    }
  }
}
node {
  name: "embedding/embeddings/Read/ReadVariableOp"
  op: "ReadVariableOp"
  input: "embedding/embeddings"
  attr {
    key: "dtype"
    value {
      type: DT_FLOAT
    }
  }
}
node {
  name: "embedding/embedding_lookup"
  op: "ResourceGather"
  input: "embedding/embeddings"
  input: "unstack"
  attr {
    key: "Tindices"
    value {
      type: DT_INT64
    }
  }
  attr {
    key: "_class"
    value {
      list {
        s: "loc:@embedding/embeddings"
      }
    }
  }
  attr {
    key: "batch_dims"
    value {
      i: 0
    }
  }
  attr {
    key: "dtype"
    value {
      type: DT_FLOAT
    }
  }
  attr {
    key: "validate_indices"
    value {
      b: true
    }
  }
}
node {
  name: "embedding/embedding_lookup/Identity"
  op: "Identity"
  input: "embedding/embedding_lookup"
  attr {
    key: "T"
    value {
      type: DT_FLOAT
    }
  }
  attr {
    key: "_class"
    value {
      list {
        s: "loc:@embedding/embeddings"
      }
    }
  }
}
node {
  name: "embedding/embedding_lookup/Identity_1"
  op: "Identity"
  input: "embedding/embedding_lookup/Identity"
  attr {
    key: "T"
    value {
      type: DT_FLOAT
    }
  }
}
node {
  name: "embedding_1/embeddings/Initializer/random_uniform/shape"
  op: "Const"
  attr {
    key: "_class"
    value {
      list {
        s: "loc:@embedding_1/embeddings"
      }
    }
  }
  attr {
    key: "dtype"
    value {
      type: DT_INT32
    }
  }
  attr {
    key: "value"
    value {
      tensor {
        dtype: DT_INT32
        tensor_shape {
          dim {
            size: 2
          }
        }
        tensor_content: " N\000\000\000\001\000\000"
      }
    }
  }
}
node {
  name: "embedding_1/embeddings/Initializer/random_uniform/min"
  op: "Const"
  attr {
    key: "_class"
    value {
      list {
        s: "loc:@embedding_1/embeddings"
      }
    }
  }
  attr {
    key: "dtype"
    value {
      type: DT_FLOAT
    }
  }
  attr {
    key: "value"
    value {
      tensor {
        dtype: DT_FLOAT
        tensor_shape {
        }
        float_val: -0.05000000074505806
      }
    }
  }
}
node {
  name: "embedding_1/embeddings/Initializer/random_uniform/max"
  op: "Const"
  attr {
    key: "_class"
    value {
      list {
        s: "loc:@embedding_1/embeddings"
      }
    }
  }
  attr {
    key: "dtype"
    value {
      type: DT_FLOAT
    }
  }
  attr {
    key: "value"
    value {
      tensor {
        dtype: DT_FLOAT
        tensor_shape {
        }
        float_val: 0.05000000074505806
      }
    }
  }
}
node {
  name: "embedding_1/embeddings/Initializer/random_uniform/RandomUniform"
  op: "RandomUniform"
  input: "embedding_1/embeddings/Initializer/random_uniform/shape"
  attr {
    key: "T"
    value {
      type: DT_INT32
    }
  }
  attr {
    key: "_class"
    value {
      list {
        s: "loc:@embedding_1/embeddings"
      }
    }
  }
  attr {
    key: "dtype"
    value {
      type: DT_FLOAT
    }
  }
  attr {
    key: "seed"
    value {
      i: 0
    }
  }
  attr {
    key: "seed2"
    value {
      i: 0
    }
  }
}
node {
  name: "embedding_1/embeddings/Initializer/random_uniform/sub"
  op: "Sub"
  input: "embedding_1/embeddings/Initializer/random_uniform/max"
  input: "embedding_1/embeddings/Initializer/random_uniform/min"
  attr {
    key: "T"
    value {
      type: DT_FLOAT
    }
  }
  attr {
    key: "_class"
    value {
      list {
        s: "loc:@embedding_1/embeddings"
      }
    }
  }
}
node {
  name: "embedding_1/embeddings/Initializer/random_uniform/mul"
  op: "Mul"
  input: "embedding_1/embeddings/Initializer/random_uniform/RandomUniform"
  input: "embedding_1/embeddings/Initializer/random_uniform/sub"
  attr {
    key: "T"
    value {
      type: DT_FLOAT
    }
  }
  attr {
    key: "_class"
    value {
      list {
        s: "loc:@embedding_1/embeddings"
      }
    }
  }
}
node {
  name: "embedding_1/embeddings/Initializer/random_uniform"
  op: "Add"
  input: "embedding_1/embeddings/Initializer/random_uniform/mul"
  input: "embedding_1/embeddings/Initializer/random_uniform/min"
  attr {
    key: "T"
    value {
      type: DT_FLOAT
    }
  }
  attr {
    key: "_class"
    value {
      list {
        s: "loc:@embedding_1/embeddings"
      }
    }
  }
}
node {
  name: "embedding_1/embeddings"
  op: "VarHandleOp"
  attr {
    key: "_class"
    value {
      list {
        s: "loc:@embedding_1/embeddings"
      }
    }
  }
    
  attr {
    key: "container"
    value {
      s: ""
    }
  }
  attr {
    key: "dtype"
    value {
      type: DT_FLOAT
    }
  }
  attr {
    key: "shape"
    value {
      shape {
        dim {
          size: 20000
        }
        dim {
          size: 256
        }
      }
    }
  }
  attr {
    key: "shared_name"
    value {
      s: "embedding_1/embeddings"
    }
  }
}
node {
  name: "embedding_1/embeddings/IsInitialized/VarIsInitializedOp"
  op: "VarIsInitializedOp"
  input: "embedding_1/embeddings"
}
node {
  name: "embedding_1/embeddings/Assign"
  op: "AssignVariableOp"
  input: "embedding_1/embeddings"
  input: "embedding_1/embeddings/Initializer/random_uniform"
  attr {
    key: "dtype"
    value {
      type: DT_FLOAT
    }
  }
}
node {
  name: "embedding_1/embeddings/Read/ReadVariableOp"
  op: "ReadVariableOp"
  input: "embedding_1/embeddings"
  attr {
    key: "dtype"
    value {
      type: DT_FLOAT
    }
  }
}
node {
  name: "embedding_1/embedding_lookup"
  op: "ResourceGather"
  input: "embedding_1/embeddings"
  input: "unstack:1"
  attr {
    key: "Tindices"
    value {
      type: DT_INT64
    }
  }
  attr {
    key: "_class"
    value {
      list {
        s: "loc:@embedding_1/embeddings"
      }
    }
  }
  attr {
    key: "batch_dims"
    value {
      i: 0
    }
  }
  attr {
    key: "dtype"
    value {
      type: DT_FLOAT
    }
  }
  attr {
    key: "validate_indices"
    value {
      b: true
    }
  }
}
node {
  name: "embedding_1/embedding_lookup/Identity"
  op: "Identity"
  input: "embedding_1/embedding_lookup"
  attr {
    key: "T"
    value {
      type: DT_FLOAT
    }
  }
  attr {
    key: "_class"
    value {
      list {
        s: "loc:@embedding_1/embeddings"
      }
    }
  }
}
node {
  name: "embedding_1/embedding_lookup/Identity_1"
  op: "Identity"
  input: "embedding_1/embedding_lookup/Identity"
  attr {
    key: "T"
    value {
      type: DT_FLOAT
    }
  }
}
node {
  name: "embedding_2/embeddings/Initializer/random_uniform/shape"
  op: "Const"
  attr {
    key: "_class"
    value {
      list {
        s: "loc:@embedding_2/embeddings"
      }
    }
  }
  attr {
    key: "dtype"
    value {
      type: DT_INT32
    }
  }
  attr {
    key: "value"
    value {
      tensor {
        dtype: DT_INT32
        tensor_shape {
          dim {
            size: 2
          }
        }
        tensor_content: " N\000\000\000\001\000\000"
      }
    }
  }
}
node {
  name: "embedding_2/embeddings/Initializer/random_uniform/min"
  op: "Const"
  attr {
    key: "_class"
    value {
      list {
        s: "loc:@embedding_2/embeddings"
      }
    }
  }
  attr {
    key: "dtype"
    value {
      type: DT_FLOAT
    }
  }
  attr {
    key: "value"
    value {
      tensor {
        dtype: DT_FLOAT
        tensor_shape {
        }
        float_val: -0.05000000074505806
      }
    }
  }
}
node {
  name: "embedding_2/embeddings/Initializer/random_uniform/max"
  op: "Const"
  attr {
    key: "_class"
    value {
      list {
        s: "loc:@embedding_2/embeddings"
      }
    }
  }
  attr {
    key: "dtype"
    value {
      type: DT_FLOAT
    }
  }
  attr {
    key: "value"
    value {
      tensor {
        dtype: DT_FLOAT
        tensor_shape {
        }
        float_val: 0.05000000074505806
      }
    }
  }
}
node {
  name: "embedding_2/embeddings/Initializer/random_uniform/RandomUniform"
  op: "RandomUniform"
  input: "embedding_2/embeddings/Initializer/random_uniform/shape"
  attr {
    key: "T"
    value {
      type: DT_INT32
    }
  }
  attr {
    key: "_class"
    value {
      list {
        s: "loc:@embedding_2/embeddings"
      }
    }
  }
  attr {
    key: "dtype"
    value {
      type: DT_FLOAT
    }
  }
  attr {
    key: "seed"
    value {
      i: 0
    }
  }
  attr {
    key: "seed2"
    value {
      i: 0
    }
  }
}
node {
  name: "embedding_2/embeddings/Initializer/random_uniform/sub"
  op: "Sub"
  input: "embedding_2/embeddings/Initializer/random_uniform/max"
  input: "embedding_2/embeddings/Initializer/random_uniform/min"
  attr {
    key: "T"
    value {
      type: DT_FLOAT
    }
  }
  attr {
    key: "_class"
    value {
      list {
        s: "loc:@embedding_2/embeddings"
      }
    }
  }
}
node {
  name: "embedding_2/embeddings/Initializer/random_uniform/mul"
  op: "Mul"
  input: "embedding_2/embeddings/Initializer/random_uniform/RandomUniform"
  input: "embedding_2/embeddings/Initializer/random_uniform/sub"
  attr {
    key: "T"
    value {
      type: DT_FLOAT
    }
  }
  attr {
    key: "_class"
    value {
      list {
        s: "loc:@embedding_2/embeddings"
      }
    }
  }
}
node {
  name: "embedding_2/embeddings/Initializer/random_uniform"
  op: "Add"
  input: "embedding_2/embeddings/Initializer/random_uniform/mul"
  input: "embedding_2/embeddings/Initializer/random_uniform/min"
  attr {
    key: "T"
    value {
      type: DT_FLOAT
    }
  }
  attr {
    key: "_class"
    value {
      list {
        s: "loc:@embedding_2/embeddings"
      }
    }
  }
}
node {
  name: "embedding_2/embeddings"
  op: "VarHandleOp"
  attr {
    key: "_class"
    value {
      list {
        s: "loc:@embedding_2/embeddings"
      }
    }
  }
    
  attr {
    key: "container"
    value {
      s: ""
    }
  }
  attr {
    key: "dtype"
    value {
      type: DT_FLOAT
    }
  }
  attr {
    key: "shape"
    value {
      shape {
        dim {
          size: 20000
        }
        dim {
          size: 256
        }
      }
    }
  }
  attr {
    key: "shared_name"
    value {
      s: "embedding_2/embeddings"
    }
  }
}
node {
  name: "embedding_2/embeddings/IsInitialized/VarIsInitializedOp"
  op: "VarIsInitializedOp"
  input: "embedding_2/embeddings"
}
node {
  name: "embedding_2/embeddings/Assign"
  op: "AssignVariableOp"
  input: "embedding_2/embeddings"
  input: "embedding_2/embeddings/Initializer/random_uniform"
  attr {
    key: "dtype"
    value {
      type: DT_FLOAT
    }
  }
}
node {
  name: "embedding_2/embeddings/Read/ReadVariableOp"
  op: "ReadVariableOp"
  input: "embedding_2/embeddings"
  attr {
    key: "dtype"
    value {
      type: DT_FLOAT
    }
  }
}
node {
  name: "embedding_2/embedding_lookup"
  op: "ResourceGather"
  input: "embedding_2/embeddings"
  input: "unstack:2"
  attr {
    key: "Tindices"
    value {
      type: DT_INT64
    }
  }
  attr {
    key: "_class"
    value {
      list {
        s: "loc:@embedding_2/embeddings"
      }
    }
  }
  attr {
    key: "batch_dims"
    value {
      i: 0
    }
  }
  attr {
    key: "dtype"
    value {
      type: DT_FLOAT
    }
  }
  attr {
    key: "validate_indices"
    value {
      b: true
    }
  }
}
node {
  name: "embedding_2/embedding_lookup/Identity"
  op: "Identity"
  input: "embedding_2/embedding_lookup"
  attr {
    key: "T"
    value {
      type: DT_FLOAT
    }
  }
  attr {
    key: "_class"
    value {
      list {
        s: "loc:@embedding_2/embeddings"
      }
    }
  }
}
node {
  name: "embedding_2/embedding_lookup/Identity_1"
  op: "Identity"
  input: "embedding_2/embedding_lookup/Identity"
  attr {
    key: "T"
    value {
      type: DT_FLOAT
    }
  }
}
node {
  name: "embedding_3/embeddings/Initializer/random_uniform/shape"
  op: "Const"
  attr {
    key: "_class"
    value {
      list {
        s: "loc:@embedding_3/embeddings"
      }
    }
  }
  attr {
    key: "dtype"
    value {
      type: DT_INT32
    }
  }
  attr {
    key: "value"
    value {
      tensor {
        dtype: DT_INT32
        tensor_shape {
          dim {
            size: 2
          }
        }
        tensor_content: " N\000\000\000\001\000\000"
      }
    }
  }
}
node {
  name: "embedding_3/embeddings/Initializer/random_uniform/min"
  op: "Const"
  attr {
    key: "_class"
    value {
      list {
        s: "loc:@embedding_3/embeddings"
      }
    }
  }
  attr {
    key: "dtype"
    value {
      type: DT_FLOAT
    }
  }
  attr {
    key: "value"
    value {
      tensor {
        dtype: DT_FLOAT
        tensor_shape {
        }
        float_val: -0.05000000074505806
      }
    }
  }
}
node {
  name: "embedding_3/embeddings/Initializer/random_uniform/max"
  op: "Const"
  attr {
    key: "_class"
    value {
      list {
        s: "loc:@embedding_3/embeddings"
      }
    }
  }
  attr {
    key: "dtype"
    value {
      type: DT_FLOAT
    }
  }
  attr {
    key: "value"
    value {
      tensor {
        dtype: DT_FLOAT
        tensor_shape {
        }
        float_val: 0.05000000074505806
      }
    }
  }
}
node {
  name: "embedding_3/embeddings/Initializer/random_uniform/RandomUniform"
  op: "RandomUniform"
  input: "embedding_3/embeddings/Initializer/random_uniform/shape"
  attr {
    key: "T"
    value {
      type: DT_INT32
    }
  }
  attr {
    key: "_class"
    value {
      list {
        s: "loc:@embedding_3/embeddings"
      }
    }
  }
  attr {
    key: "dtype"
    value {
      type: DT_FLOAT
    }
  }
  attr {
    key: "seed"
    value {
      i: 0
    }
  }
  attr {
    key: "seed2"
    value {
      i: 0
    }
  }
}
node {
  name: "embedding_3/embeddings/Initializer/random_uniform/sub"
  op: "Sub"
  input: "embedding_3/embeddings/Initializer/random_uniform/max"
  input: "embedding_3/embeddings/Initializer/random_uniform/min"
  attr {
    key: "T"
    value {
      type: DT_FLOAT
    }
  }
  attr {
    key: "_class"
    value {
      list {
        s: "loc:@embedding_3/embeddings"
      }
    }
  }
}
node {
  name: "embedding_3/embeddings/Initializer/random_uniform/mul"
  op: "Mul"
  input: "embedding_3/embeddings/Initializer/random_uniform/RandomUniform"
  input: "embedding_3/embeddings/Initializer/random_uniform/sub"
  attr {
    key: "T"
    value {
      type: DT_FLOAT
    }
  }
  attr {
    key: "_class"
    value {
      list {
        s: "loc:@embedding_3/embeddings"
      }
    }
  }
}
node {
  name: "embedding_3/embeddings/Initializer/random_uniform"
  op: "Add"
  input: "embedding_3/embeddings/Initializer/random_uniform/mul"
  input: "embedding_3/embeddings/Initializer/random_uniform/min"
  attr {
    key: "T"
    value {
      type: DT_FLOAT
    }
  }
  attr {
    key: "_class"
    value {
      list {
        s: "loc:@embedding_3/embeddings"
      }
    }
  }
}
node {
  name: "embedding_3/embeddings"
  op: "VarHandleOp"
  attr {
    key: "_class"
    value {
      list {
        s: "loc:@embedding_3/embeddings"
      }
    }
  }
    
  attr {
    key: "container"
    value {
      s: ""
    }
  }
  attr {
    key: "dtype"
    value {
      type: DT_FLOAT
    }
  }
  attr {
    key: "shape"
    value {
      shape {
        dim {
          size: 20000
        }
        dim {
          size: 256
        }
      }
    }
  }
  attr {
    key: "shared_name"
    value {
      s: "embedding_3/embeddings"
    }
  }
}
node {
  name: "embedding_3/embeddings/IsInitialized/VarIsInitializedOp"
  op: "VarIsInitializedOp"
  input: "embedding_3/embeddings"
}
node {
  name: "embedding_3/embeddings/Assign"
  op: "AssignVariableOp"
  input: "embedding_3/embeddings"
  input: "embedding_3/embeddings/Initializer/random_uniform"
  attr {
    key: "dtype"
    value {
      type: DT_FLOAT
    }
  }
}
node {
  name: "embedding_3/embeddings/Read/ReadVariableOp"
  op: "ReadVariableOp"
  input: "embedding_3/embeddings"
  attr {
    key: "dtype"
    value {
      type: DT_FLOAT
    }
  }
}
node {
  name: "embedding_3/embedding_lookup"
  op: "ResourceGather"
  input: "embedding_3/embeddings"
  input: "unstack:3"
  attr {
    key: "Tindices"
    value {
      type: DT_INT64
    }
  }
  attr {
    key: "_class"
    value {
      list {
        s: "loc:@embedding_3/embeddings"
      }
    }
  }
  attr {
    key: "batch_dims"
    value {
      i: 0
    }
  }
  attr {
    key: "dtype"
    value {
      type: DT_FLOAT
    }
  }
  attr {
    key: "validate_indices"
    value {
      b: true
    }
  }
}
node {
  name: "embedding_3/embedding_lookup/Identity"
  op: "Identity"
  input: "embedding_3/embedding_lookup"
  attr {
    key: "T"
    value {
      type: DT_FLOAT
    }
  }
  attr {
    key: "_class"
    value {
      list {
        s: "loc:@embedding_3/embeddings"
      }
    }
  }
}
node {
  name: "embedding_3/embedding_lookup/Identity_1"
  op: "Identity"
  input: "embedding_3/embedding_lookup/Identity"
  attr {
    key: "T"
    value {
      type: DT_FLOAT
    }
  }
}
node {
  name: "embedding_4/embeddings/Initializer/random_uniform/shape"
  op: "Const"
  attr {
    key: "_class"
    value {
      list {
        s: "loc:@embedding_4/embeddings"
      }
    }
  }
  attr {
    key: "dtype"
    value {
      type: DT_INT32
    }
  }
  attr {
    key: "value"
    value {
      tensor {
        dtype: DT_INT32
        tensor_shape {
          dim {
            size: 2
          }
        }
        tensor_content: " N\000\000\000\001\000\000"
      }
    }
  }
}
node {
  name: "embedding_4/embeddings/Initializer/random_uniform/min"
  op: "Const"
  attr {
    key: "_class"
    value {
      list {
        s: "loc:@embedding_4/embeddings"
      }
    }
  }
  attr {
    key: "dtype"
    value {
      type: DT_FLOAT
    }
  }
  attr {
    key: "value"
    value {
      tensor {
        dtype: DT_FLOAT
        tensor_shape {
        }
        float_val: -0.05000000074505806
      }
    }
  }
}
node {
  name: "embedding_4/embeddings/Initializer/random_uniform/max"
  op: "Const"
  attr {
    key: "_class"
    value {
      list {
        s: "loc:@embedding_4/embeddings"
      }
    }
  }
  attr {
    key: "dtype"
    value {
      type: DT_FLOAT
    }
  }
  attr {
    key: "value"
    value {
      tensor {
        dtype: DT_FLOAT
        tensor_shape {
        }
        float_val: 0.05000000074505806
      }
    }
  }
}
node {
  name: "embedding_4/embeddings/Initializer/random_uniform/RandomUniform"
  op: "RandomUniform"
  input: "embedding_4/embeddings/Initializer/random_uniform/shape"
  attr {
    key: "T"
    value {
      type: DT_INT32
    }
  }
  attr {
    key: "_class"
    value {
      list {
        s: "loc:@embedding_4/embeddings"
      }
    }
  }
  attr {
    key: "dtype"
    value {
      type: DT_FLOAT
    }
  }
  attr {
    key: "seed"
    value {
      i: 0
    }
  }
  attr {
    key: "seed2"
    value {
      i: 0
    }
  }
}
node {
  name: "embedding_4/embeddings/Initializer/random_uniform/sub"
  op: "Sub"
  input: "embedding_4/embeddings/Initializer/random_uniform/max"
  input: "embedding_4/embeddings/Initializer/random_uniform/min"
  attr {
    key: "T"
    value {
      type: DT_FLOAT
    }
  }
  attr {
    key: "_class"
    value {
      list {
        s: "loc:@embedding_4/embeddings"
      }
    }
  }
}
node {
  name: "embedding_4/embeddings/Initializer/random_uniform/mul"
  op: "Mul"
  input: "embedding_4/embeddings/Initializer/random_uniform/RandomUniform"
  input: "embedding_4/embeddings/Initializer/random_uniform/sub"
  attr {
    key: "T"
    value {
      type: DT_FLOAT
    }
  }
  attr {
    key: "_class"
    value {
      list {
        s: "loc:@embedding_4/embeddings"
      }
    }
  }
}
node {
  name: "embedding_4/embeddings/Initializer/random_uniform"
  op: "Add"
  input: "embedding_4/embeddings/Initializer/random_uniform/mul"
  input: "embedding_4/embeddings/Initializer/random_uniform/min"
  attr {
    key: "T"
    value {
      type: DT_FLOAT
    }
  }
  attr {
    key: "_class"
    value {
      list {
        s: "loc:@embedding_4/embeddings"
      }
    }
  }
}
node {
  name: "embedding_4/embeddings"
  op: "VarHandleOp"
  attr {
    key: "_class"
    value {
      list {
        s: "loc:@embedding_4/embeddings"
      }
    }
  }
    
  attr {
    key: "container"
    value {
      s: ""
    }
  }
  attr {
    key: "dtype"
    value {
      type: DT_FLOAT
    }
  }
  attr {
    key: "shape"
    value {
      shape {
        dim {
          size: 20000
        }
        dim {
          size: 256
        }
      }
    }
  }
  attr {
    key: "shared_name"
    value {
      s: "embedding_4/embeddings"
    }
  }
}
node {
  name: "embedding_4/embeddings/IsInitialized/VarIsInitializedOp"
  op: "VarIsInitializedOp"
  input: "embedding_4/embeddings"
}
node {
  name: "embedding_4/embeddings/Assign"
  op: "AssignVariableOp"
  input: "embedding_4/embeddings"
  input: "embedding_4/embeddings/Initializer/random_uniform"
  attr {
    key: "dtype"
    value {
      type: DT_FLOAT
    }
  }
}
node {
  name: "embedding_4/embeddings/Read/ReadVariableOp"
  op: "ReadVariableOp"
  input: "embedding_4/embeddings"
  attr {
    key: "dtype"
    value {
      type: DT_FLOAT
    }
  }
}
node {
  name: "embedding_4/embedding_lookup"
  op: "ResourceGather"
  input: "embedding_4/embeddings"
  input: "unstack:4"
  attr {
    key: "Tindices"
    value {
      type: DT_INT64
    }
  }
  attr {
    key: "_class"
    value {
      list {
        s: "loc:@embedding_4/embeddings"
      }
    }
  }
  attr {
    key: "batch_dims"
    value {
      i: 0
    }
  }
  attr {
    key: "dtype"
    value {
      type: DT_FLOAT
    }
  }
  attr {
    key: "validate_indices"
    value {
      b: true
    }
  }
}
node {
  name: "embedding_4/embedding_lookup/Identity"
  op: "Identity"
  input: "embedding_4/embedding_lookup"
  attr {
    key: "T"
    value {
      type: DT_FLOAT
    }
  }
  attr {
    key: "_class"
    value {
      list {
        s: "loc:@embedding_4/embeddings"
      }
    }
  }
}
node {
  name: "embedding_4/embedding_lookup/Identity_1"
  op: "Identity"
  input: "embedding_4/embedding_lookup/Identity"
  attr {
    key: "T"
    value {
      type: DT_FLOAT
    }
  }
}
node {
  name: "embedding_5/embeddings/Initializer/random_uniform/shape"
  op: "Const"
  attr {
    key: "_class"
    value {
      list {
        s: "loc:@embedding_5/embeddings"
      }
    }
  }
  attr {
    key: "dtype"
    value {
      type: DT_INT32
    }
  }
  attr {
    key: "value"
    value {
      tensor {
        dtype: DT_INT32
        tensor_shape {
          dim {
            size: 2
          }
        }
        tensor_content: " N\000\000\000\001\000\000"
      }
    }
  }
}
node {
  name: "embedding_5/embeddings/Initializer/random_uniform/min"
  op: "Const"
  attr {
    key: "_class"
    value {
      list {
        s: "loc:@embedding_5/embeddings"
      }
    }
  }
  attr {
    key: "dtype"
    value {
      type: DT_FLOAT
    }
  }
  attr {
    key: "value"
    value {
      tensor {
        dtype: DT_FLOAT
        tensor_shape {
        }
        float_val: -0.05000000074505806
      }
    }
  }
}
node {
  name: "embedding_5/embeddings/Initializer/random_uniform/max"
  op: "Const"
  attr {
    key: "_class"
    value {
      list {
        s: "loc:@embedding_5/embeddings"
      }
    }
  }
  attr {
    key: "dtype"
    value {
      type: DT_FLOAT
    }
  }
  attr {
    key: "value"
    value {
      tensor {
        dtype: DT_FLOAT
        tensor_shape {
        }
        float_val: 0.05000000074505806
      }
    }
  }
}
node {
  name: "embedding_5/embeddings/Initializer/random_uniform/RandomUniform"
  op: "RandomUniform"
  input: "embedding_5/embeddings/Initializer/random_uniform/shape"
  attr {
    key: "T"
    value {
      type: DT_INT32
    }
  }
  attr {
    key: "_class"
    value {
      list {
        s: "loc:@embedding_5/embeddings"
      }
    }
  }
  attr {
    key: "dtype"
    value {
      type: DT_FLOAT
    }
  }
  attr {
    key: "seed"
    value {
      i: 0
    }
  }
  attr {
    key: "seed2"
    value {
      i: 0
    }
  }
}
node {
  name: "embedding_5/embeddings/Initializer/random_uniform/sub"
  op: "Sub"
  input: "embedding_5/embeddings/Initializer/random_uniform/max"
  input: "embedding_5/embeddings/Initializer/random_uniform/min"
  attr {
    key: "T"
    value {
      type: DT_FLOAT
    }
  }
  attr {
    key: "_class"
    value {
      list {
        s: "loc:@embedding_5/embeddings"
      }
    }
  }
}
node {
  name: "embedding_5/embeddings/Initializer/random_uniform/mul"
  op: "Mul"
  input: "embedding_5/embeddings/Initializer/random_uniform/RandomUniform"
  input: "embedding_5/embeddings/Initializer/random_uniform/sub"
  attr {
    key: "T"
    value {
      type: DT_FLOAT
    }
  }
  attr {
    key: "_class"
    value {
      list {
        s: "loc:@embedding_5/embeddings"
      }
    }
  }
}
node {
  name: "embedding_5/embeddings/Initializer/random_uniform"
  op: "Add"
  input: "embedding_5/embeddings/Initializer/random_uniform/mul"
  input: "embedding_5/embeddings/Initializer/random_uniform/min"
  attr {
    key: "T"
    value {
      type: DT_FLOAT
    }
  }
  attr {
    key: "_class"
    value {
      list {
        s: "loc:@embedding_5/embeddings"
      }
    }
  }
}
node {
  name: "embedding_5/embeddings"
  op: "VarHandleOp"
  attr {
    key: "_class"
    value {
      list {
        s: "loc:@embedding_5/embeddings"
      }
    }
  }
    
  attr {
    key: "container"
    value {
      s: ""
    }
  }
  attr {
    key: "dtype"
    value {
      type: DT_FLOAT
    }
  }
  attr {
    key: "shape"
    value {
      shape {
        dim {
          size: 20000
        }
        dim {
          size: 256
        }
      }
    }
  }
  attr {
    key: "shared_name"
    value {
      s: "embedding_5/embeddings"
    }
  }
}
node {
  name: "embedding_5/embeddings/IsInitialized/VarIsInitializedOp"
  op: "VarIsInitializedOp"
  input: "embedding_5/embeddings"
}
node {
  name: "embedding_5/embeddings/Assign"
  op: "AssignVariableOp"
  input: "embedding_5/embeddings"
  input: "embedding_5/embeddings/Initializer/random_uniform"
  attr {
    key: "dtype"
    value {
      type: DT_FLOAT
    }
  }
}
node {
  name: "embedding_5/embeddings/Read/ReadVariableOp"
  op: "ReadVariableOp"
  input: "embedding_5/embeddings"
  attr {
    key: "dtype"
    value {
      type: DT_FLOAT
    }
  }
}
node {
  name: "embedding_5/embedding_lookup"
  op: "ResourceGather"
  input: "embedding_5/embeddings"
  input: "unstack:5"
  attr {
    key: "Tindices"
    value {
      type: DT_INT64
    }
  }
  attr {
    key: "_class"
    value {
      list {
        s: "loc:@embedding_5/embeddings"
      }
    }
  }
  attr {
    key: "batch_dims"
    value {
      i: 0
    }
  }
  attr {
    key: "dtype"
    value {
      type: DT_FLOAT
    }
  }
  attr {
    key: "validate_indices"
    value {
      b: true
    }
  }
}
node {
  name: "embedding_5/embedding_lookup/Identity"
  op: "Identity"
  input: "embedding_5/embedding_lookup"
  attr {
    key: "T"
    value {
      type: DT_FLOAT
    }
  }
  attr {
    key: "_class"
    value {
      list {
        s: "loc:@embedding_5/embeddings"
      }
    }
  }
}
node {
  name: "embedding_5/embedding_lookup/Identity_1"
  op: "Identity"
  input: "embedding_5/embedding_lookup/Identity"
  attr {
    key: "T"
    value {
      type: DT_FLOAT
    }
  }
}
node {
  name: "embedding_6/embeddings/Initializer/random_uniform/shape"
  op: "Const"
  attr {
    key: "_class"
    value {
      list {
        s: "loc:@embedding_6/embeddings"
      }
    }
  }
  attr {
    key: "dtype"
    value {
      type: DT_INT32
    }
  }
  attr {
    key: "value"
    value {
      tensor {
        dtype: DT_INT32
        tensor_shape {
          dim {
            size: 2
          }
        }
        tensor_content: " N\000\000\000\001\000\000"
      }
    }
  }
}
node {
  name: "embedding_6/embeddings/Initializer/random_uniform/min"
  op: "Const"
  attr {
    key: "_class"
    value {
      list {
        s: "loc:@embedding_6/embeddings"
      }
    }
  }
  attr {
    key: "dtype"
    value {
      type: DT_FLOAT
    }
  }
  attr {
    key: "value"
    value {
      tensor {
        dtype: DT_FLOAT
        tensor_shape {
        }
        float_val: -0.05000000074505806
      }
    }
  }
}
node {
  name: "embedding_6/embeddings/Initializer/random_uniform/max"
  op: "Const"
  attr {
    key: "_class"
    value {
      list {
        s: "loc:@embedding_6/embeddings"
      }
    }
  }
  attr {
    key: "dtype"
    value {
      type: DT_FLOAT
    }
  }
  attr {
    key: "value"
    value {
      tensor {
        dtype: DT_FLOAT
        tensor_shape {
        }
        float_val: 0.05000000074505806
      }
    }
  }
}
node {
  name: "embedding_6/embeddings/Initializer/random_uniform/RandomUniform"
  op: "RandomUniform"
  input: "embedding_6/embeddings/Initializer/random_uniform/shape"
  attr {
    key: "T"
    value {
      type: DT_INT32
    }
  }
  attr {
    key: "_class"
    value {
      list {
        s: "loc:@embedding_6/embeddings"
      }
    }
  }
  attr {
    key: "dtype"
    value {
      type: DT_FLOAT
    }
  }
  attr {
    key: "seed"
    value {
      i: 0
    }
  }
  attr {
    key: "seed2"
    value {
      i: 0
    }
  }
}
node {
  name: "embedding_6/embeddings/Initializer/random_uniform/sub"
  op: "Sub"
  input: "embedding_6/embeddings/Initializer/random_uniform/max"
  input: "embedding_6/embeddings/Initializer/random_uniform/min"
  attr {
    key: "T"
    value {
      type: DT_FLOAT
    }
  }
  attr {
    key: "_class"
    value {
      list {
        s: "loc:@embedding_6/embeddings"
      }
    }
  }
}
node {
  name: "embedding_6/embeddings/Initializer/random_uniform/mul"
  op: "Mul"
  input: "embedding_6/embeddings/Initializer/random_uniform/RandomUniform"
  input: "embedding_6/embeddings/Initializer/random_uniform/sub"
  attr {
    key: "T"
    value {
      type: DT_FLOAT
    }
  }
  attr {
    key: "_class"
    value {
      list {
        s: "loc:@embedding_6/embeddings"
      }
    }
  }
}
node {
  name: "embedding_6/embeddings/Initializer/random_uniform"
  op: "Add"
  input: "embedding_6/embeddings/Initializer/random_uniform/mul"
  input: "embedding_6/embeddings/Initializer/random_uniform/min"
  attr {
    key: "T"
    value {
      type: DT_FLOAT
    }
  }
  attr {
    key: "_class"
    value {
      list {
        s: "loc:@embedding_6/embeddings"
      }
    }
  }
}
node {
  name: "embedding_6/embeddings"
  op: "VarHandleOp"
  attr {
    key: "_class"
    value {
      list {
        s: "loc:@embedding_6/embeddings"
      }
    }
  }
    
  attr {
    key: "container"
    value {
      s: ""
    }
  }
  attr {
    key: "dtype"
    value {
      type: DT_FLOAT
    }
  }
  attr {
    key: "shape"
    value {
      shape {
        dim {
          size: 20000
        }
        dim {
          size: 256
        }
      }
    }
  }
  attr {
    key: "shared_name"
    value {
      s: "embedding_6/embeddings"
    }
  }
}
node {
  name: "embedding_6/embeddings/IsInitialized/VarIsInitializedOp"
  op: "VarIsInitializedOp"
  input: "embedding_6/embeddings"
}
node {
  name: "embedding_6/embeddings/Assign"
  op: "AssignVariableOp"
  input: "embedding_6/embeddings"
  input: "embedding_6/embeddings/Initializer/random_uniform"
  attr {
    key: "dtype"
    value {
      type: DT_FLOAT
    }
  }
}
node {
  name: "embedding_6/embeddings/Read/ReadVariableOp"
  op: "ReadVariableOp"
  input: "embedding_6/embeddings"
  attr {
    key: "dtype"
    value {
      type: DT_FLOAT
    }
  }
}
node {
  name: "embedding_6/embedding_lookup"
  op: "ResourceGather"
  input: "embedding_6/embeddings"
  input: "unstack:6"
  attr {
    key: "Tindices"
    value {
      type: DT_INT64
    }
  }
  attr {
    key: "_class"
    value {
      list {
        s: "loc:@embedding_6/embeddings"
      }
    }
  }
  attr {
    key: "batch_dims"
    value {
      i: 0
    }
  }
  attr {
    key: "dtype"
    value {
      type: DT_FLOAT
    }
  }
  attr {
    key: "validate_indices"
    value {
      b: true
    }
  }
}
node {
  name: "embedding_6/embedding_lookup/Identity"
  op: "Identity"
  input: "embedding_6/embedding_lookup"
  attr {
    key: "T"
    value {
      type: DT_FLOAT
    }
  }
  attr {
    key: "_class"
    value {
      list {
        s: "loc:@embedding_6/embeddings"
      }
    }
  }
}
node {
  name: "embedding_6/embedding_lookup/Identity_1"
  op: "Identity"
  input: "embedding_6/embedding_lookup/Identity"
  attr {
    key: "T"
    value {
      type: DT_FLOAT
    }
  }
}
node {
  name: "embedding_7/embeddings/Initializer/random_uniform/shape"
  op: "Const"
  attr {
    key: "_class"
    value {
      list {
        s: "loc:@embedding_7/embeddings"
      }
    }
  }
  attr {
    key: "dtype"
    value {
      type: DT_INT32
    }
  }
  attr {
    key: "value"
    value {
      tensor {
        dtype: DT_INT32
        tensor_shape {
          dim {
            size: 2
          }
        }
        tensor_content: " N\000\000\000\001\000\000"
      }
    }
  }
}
node {
  name: "embedding_7/embeddings/Initializer/random_uniform/min"
  op: "Const"
  attr {
    key: "_class"
    value {
      list {
        s: "loc:@embedding_7/embeddings"
      }
    }
  }
  attr {
    key: "dtype"
    value {
      type: DT_FLOAT
    }
  }
  attr {
    key: "value"
    value {
      tensor {
        dtype: DT_FLOAT
        tensor_shape {
        }
        float_val: -0.05000000074505806
      }
    }
  }
}
node {
  name: "embedding_7/embeddings/Initializer/random_uniform/max"
  op: "Const"
  attr {
    key: "_class"
    value {
      list {
        s: "loc:@embedding_7/embeddings"
      }
    }
  }
  attr {
    key: "dtype"
    value {
      type: DT_FLOAT
    }
  }
  attr {
    key: "value"
    value {
      tensor {
        dtype: DT_FLOAT
        tensor_shape {
        }
        float_val: 0.05000000074505806
      }
    }
  }
}
node {
  name: "embedding_7/embeddings/Initializer/random_uniform/RandomUniform"
  op: "RandomUniform"
  input: "embedding_7/embeddings/Initializer/random_uniform/shape"
  attr {
    key: "T"
    value {
      type: DT_INT32
    }
  }
  attr {
    key: "_class"
    value {
      list {
        s: "loc:@embedding_7/embeddings"
      }
    }
  }
  attr {
    key: "dtype"
    value {
      type: DT_FLOAT
    }
  }
  attr {
    key: "seed"
    value {
      i: 0
    }
  }
  attr {
    key: "seed2"
    value {
      i: 0
    }
  }
}
node {
  name: "embedding_7/embeddings/Initializer/random_uniform/sub"
  op: "Sub"
  input: "embedding_7/embeddings/Initializer/random_uniform/max"
  input: "embedding_7/embeddings/Initializer/random_uniform/min"
  attr {
    key: "T"
    value {
      type: DT_FLOAT
    }
  }
  attr {
    key: "_class"
    value {
      list {
        s: "loc:@embedding_7/embeddings"
      }
    }
  }
}
node {
  name: "embedding_7/embeddings/Initializer/random_uniform/mul"
  op: "Mul"
  input: "embedding_7/embeddings/Initializer/random_uniform/RandomUniform"
  input: "embedding_7/embeddings/Initializer/random_uniform/sub"
  attr {
    key: "T"
    value {
      type: DT_FLOAT
    }
  }
  attr {
    key: "_class"
    value {
      list {
        s: "loc:@embedding_7/embeddings"
      }
    }
  }
}
node {
  name: "embedding_7/embeddings/Initializer/random_uniform"
  op: "Add"
  input: "embedding_7/embeddings/Initializer/random_uniform/mul"
  input: "embedding_7/embeddings/Initializer/random_uniform/min"
  attr {
    key: "T"
    value {
      type: DT_FLOAT
    }
  }
  attr {
    key: "_class"
    value {
      list {
        s: "loc:@embedding_7/embeddings"
      }
    }
  }
}
node {
  name: "embedding_7/embeddings"
  op: "VarHandleOp"
  attr {
    key: "_class"
    value {
      list {
        s: "loc:@embedding_7/embeddings"
      }
    }
  }
    
  attr {
    key: "container"
    value {
      s: ""
    }
  }
  attr {
    key: "dtype"
    value {
      type: DT_FLOAT
    }
  }
  attr {
    key: "shape"
    value {
      shape {
        dim {
          size: 20000
        }
        dim {
          size: 256
        }
      }
    }
  }
  attr {
    key: "shared_name"
    value {
      s: "embedding_7/embeddings"
    }
  }
}
node {
  name: "embedding_7/embeddings/IsInitialized/VarIsInitializedOp"
  op: "VarIsInitializedOp"
  input: "embedding_7/embeddings"
}
node {
  name: "embedding_7/embeddings/Assign"
  op: "AssignVariableOp"
  input: "embedding_7/embeddings"
  input: "embedding_7/embeddings/Initializer/random_uniform"
  attr {
    key: "dtype"
    value {
      type: DT_FLOAT
    }
  }
}
node {
  name: "embedding_7/embeddings/Read/ReadVariableOp"
  op: "ReadVariableOp"
  input: "embedding_7/embeddings"
  attr {
    key: "dtype"
    value {
      type: DT_FLOAT
    }
  }
}
node {
  name: "embedding_7/embedding_lookup"
  op: "ResourceGather"
  input: "embedding_7/embeddings"
  input: "unstack:7"
  attr {
    key: "Tindices"
    value {
      type: DT_INT64
    }
  }
  attr {
    key: "_class"
    value {
      list {
        s: "loc:@embedding_7/embeddings"
      }
    }
  }
  attr {
    key: "batch_dims"
    value {
      i: 0
    }
  }
  attr {
    key: "dtype"
    value {
      type: DT_FLOAT
    }
  }
  attr {
    key: "validate_indices"
    value {
      b: true
    }
  }
}
node {
  name: "embedding_7/embedding_lookup/Identity"
  op: "Identity"
  input: "embedding_7/embedding_lookup"
  attr {
    key: "T"
    value {
      type: DT_FLOAT
    }
  }
  attr {
    key: "_class"
    value {
      list {
        s: "loc:@embedding_7/embeddings"
      }
    }
  }
}
node {
  name: "embedding_7/embedding_lookup/Identity_1"
  op: "Identity"
  input: "embedding_7/embedding_lookup/Identity"
  attr {
    key: "T"
    value {
      type: DT_FLOAT
    }
  }
}
node {
  name: "embedding_8/embeddings/Initializer/random_uniform/shape"
  op: "Const"
  attr {
    key: "_class"
    value {
      list {
        s: "loc:@embedding_8/embeddings"
      }
    }
  }
  attr {
    key: "dtype"
    value {
      type: DT_INT32
    }
  }
  attr {
    key: "value"
    value {
      tensor {
        dtype: DT_INT32
        tensor_shape {
          dim {
            size: 2
          }
        }
        tensor_content: " N\000\000\000\001\000\000"
      }
    }
  }
}
node {
  name: "embedding_8/embeddings/Initializer/random_uniform/min"
  op: "Const"
  attr {
    key: "_class"
    value {
      list {
        s: "loc:@embedding_8/embeddings"
      }
    }
  }
  attr {
    key: "dtype"
    value {
      type: DT_FLOAT
    }
  }
  attr {
    key: "value"
    value {
      tensor {
        dtype: DT_FLOAT
        tensor_shape {
        }
        float_val: -0.05000000074505806
      }
    }
  }
}
node {
  name: "embedding_8/embeddings/Initializer/random_uniform/max"
  op: "Const"
  attr {
    key: "_class"
    value {
      list {
        s: "loc:@embedding_8/embeddings"
      }
    }
  }
  attr {
    key: "dtype"
    value {
      type: DT_FLOAT
    }
  }
  attr {
    key: "value"
    value {
      tensor {
        dtype: DT_FLOAT
        tensor_shape {
        }
        float_val: 0.05000000074505806
      }
    }
  }
}
node {
  name: "embedding_8/embeddings/Initializer/random_uniform/RandomUniform"
  op: "RandomUniform"
  input: "embedding_8/embeddings/Initializer/random_uniform/shape"
  attr {
    key: "T"
    value {
      type: DT_INT32
    }
  }
  attr {
    key: "_class"
    value {
      list {
        s: "loc:@embedding_8/embeddings"
      }
    }
  }
  attr {
    key: "dtype"
    value {
      type: DT_FLOAT
    }
  }
  attr {
    key: "seed"
    value {
      i: 0
    }
  }
  attr {
    key: "seed2"
    value {
      i: 0
    }
  }
}
node {
  name: "embedding_8/embeddings/Initializer/random_uniform/sub"
  op: "Sub"
  input: "embedding_8/embeddings/Initializer/random_uniform/max"
  input: "embedding_8/embeddings/Initializer/random_uniform/min"
  attr {
    key: "T"
    value {
      type: DT_FLOAT
    }
  }
  attr {
    key: "_class"
    value {
      list {
        s: "loc:@embedding_8/embeddings"
      }
    }
  }
}
node {
  name: "embedding_8/embeddings/Initializer/random_uniform/mul"
  op: "Mul"
  input: "embedding_8/embeddings/Initializer/random_uniform/RandomUniform"
  input: "embedding_8/embeddings/Initializer/random_uniform/sub"
  attr {
    key: "T"
    value {
      type: DT_FLOAT
    }
  }
  attr {
    key: "_class"
    value {
      list {
        s: "loc:@embedding_8/embeddings"
      }
    }
  }
}
node {
  name: "embedding_8/embeddings/Initializer/random_uniform"
  op: "Add"
  input: "embedding_8/embeddings/Initializer/random_uniform/mul"
  input: "embedding_8/embeddings/Initializer/random_uniform/min"
  attr {
    key: "T"
    value {
      type: DT_FLOAT
    }
  }
  attr {
    key: "_class"
    value {
      list {
        s: "loc:@embedding_8/embeddings"
      }
    }
  }
}
node {
  name: "embedding_8/embeddings"
  op: "VarHandleOp"
  attr {
    key: "_class"
    value {
      list {
        s: "loc:@embedding_8/embeddings"
      }
    }
  }
    
  attr {
    key: "container"
    value {
      s: ""
    }
  }
  attr {
    key: "dtype"
    value {
      type: DT_FLOAT
    }
  }
  attr {
    key: "shape"
    value {
      shape {
        dim {
          size: 20000
        }
        dim {
          size: 256
        }
      }
    }
  }
  attr {
    key: "shared_name"
    value {
      s: "embedding_8/embeddings"
    }
  }
}
node {
  name: "embedding_8/embeddings/IsInitialized/VarIsInitializedOp"
  op: "VarIsInitializedOp"
  input: "embedding_8/embeddings"
}
node {
  name: "embedding_8/embeddings/Assign"
  op: "AssignVariableOp"
  input: "embedding_8/embeddings"
  input: "embedding_8/embeddings/Initializer/random_uniform"
  attr {
    key: "dtype"
    value {
      type: DT_FLOAT
    }
  }
}
node {
  name: "embedding_8/embeddings/Read/ReadVariableOp"
  op: "ReadVariableOp"
  input: "embedding_8/embeddings"
  attr {
    key: "dtype"
    value {
      type: DT_FLOAT
    }
  }
}
node {
  name: "embedding_8/embedding_lookup"
  op: "ResourceGather"
  input: "embedding_8/embeddings"
  input: "unstack:8"
  attr {
    key: "Tindices"
    value {
      type: DT_INT64
    }
  }
  attr {
    key: "_class"
    value {
      list {
        s: "loc:@embedding_8/embeddings"
      }
    }
  }
  attr {
    key: "batch_dims"
    value {
      i: 0
    }
  }
  attr {
    key: "dtype"
    value {
      type: DT_FLOAT
    }
  }
  attr {
    key: "validate_indices"
    value {
      b: true
    }
  }
}
node {
  name: "embedding_8/embedding_lookup/Identity"
  op: "Identity"
  input: "embedding_8/embedding_lookup"
  attr {
    key: "T"
    value {
      type: DT_FLOAT
    }
  }
  attr {
    key: "_class"
    value {
      list {
        s: "loc:@embedding_8/embeddings"
      }
    }
  }
}
node {
  name: "embedding_8/embedding_lookup/Identity_1"
  op: "Identity"
  input: "embedding_8/embedding_lookup/Identity"
  attr {
    key: "T"
    value {
      type: DT_FLOAT
    }
  }
}
node {
  name: "embedding_9/embeddings/Initializer/random_uniform/shape"
  op: "Const"
  attr {
    key: "_class"
    value {
      list {
        s: "loc:@embedding_9/embeddings"
      }
    }
  }
  attr {
    key: "dtype"
    value {
      type: DT_INT32
    }
  }
  attr {
    key: "value"
    value {
      tensor {
        dtype: DT_INT32
        tensor_shape {
          dim {
            size: 2
          }
        }
        tensor_content: " N\000\000\000\001\000\000"
      }
    }
  }
}
node {
  name: "embedding_9/embeddings/Initializer/random_uniform/min"
  op: "Const"
  attr {
    key: "_class"
    value {
      list {
        s: "loc:@embedding_9/embeddings"
      }
    }
  }
  attr {
    key: "dtype"
    value {
      type: DT_FLOAT
    }
  }
  attr {
    key: "value"
    value {
      tensor {
        dtype: DT_FLOAT
        tensor_shape {
        }
        float_val: -0.05000000074505806
      }
    }
  }
}
node {
  name: "embedding_9/embeddings/Initializer/random_uniform/max"
  op: "Const"
  attr {
    key: "_class"
    value {
      list {
        s: "loc:@embedding_9/embeddings"
      }
    }
  }
  attr {
    key: "dtype"
    value {
      type: DT_FLOAT
    }
  }
  attr {
    key: "value"
    value {
      tensor {
        dtype: DT_FLOAT
        tensor_shape {
        }
        float_val: 0.05000000074505806
      }
    }
  }
}
node {
  name: "embedding_9/embeddings/Initializer/random_uniform/RandomUniform"
  op: "RandomUniform"
  input: "embedding_9/embeddings/Initializer/random_uniform/shape"
  attr {
    key: "T"
    value {
      type: DT_INT32
    }
  }
  attr {
    key: "_class"
    value {
      list {
        s: "loc:@embedding_9/embeddings"
      }
    }
  }
  attr {
    key: "dtype"
    value {
      type: DT_FLOAT
    }
  }
  attr {
    key: "seed"
    value {
      i: 0
    }
  }
  attr {
    key: "seed2"
    value {
      i: 0
    }
  }
}
node {
  name: "embedding_9/embeddings/Initializer/random_uniform/sub"
  op: "Sub"
  input: "embedding_9/embeddings/Initializer/random_uniform/max"
  input: "embedding_9/embeddings/Initializer/random_uniform/min"
  attr {
    key: "T"
    value {
      type: DT_FLOAT
    }
  }
  attr {
    key: "_class"
    value {
      list {
        s: "loc:@embedding_9/embeddings"
      }
    }
  }
}
node {
  name: "embedding_9/embeddings/Initializer/random_uniform/mul"
  op: "Mul"
  input: "embedding_9/embeddings/Initializer/random_uniform/RandomUniform"
  input: "embedding_9/embeddings/Initializer/random_uniform/sub"
  attr {
    key: "T"
    value {
      type: DT_FLOAT
    }
  }
  attr {
    key: "_class"
    value {
      list {
        s: "loc:@embedding_9/embeddings"
      }
    }
  }
}
node {
  name: "embedding_9/embeddings/Initializer/random_uniform"
  op: "Add"
  input: "embedding_9/embeddings/Initializer/random_uniform/mul"
  input: "embedding_9/embeddings/Initializer/random_uniform/min"
  attr {
    key: "T"
    value {
      type: DT_FLOAT
    }
  }
  attr {
    key: "_class"
    value {
      list {
        s: "loc:@embedding_9/embeddings"
      }
    }
  }
}
node {
  name: "embedding_9/embeddings"
  op: "VarHandleOp"
  attr {
    key: "_class"
    value {
      list {
        s: "loc:@embedding_9/embeddings"
      }
    }
  }
    
  attr {
    key: "container"
    value {
      s: ""
    }
  }
  attr {
    key: "dtype"
    value {
      type: DT_FLOAT
    }
  }
  attr {
    key: "shape"
    value {
      shape {
        dim {
          size: 20000
        }
        dim {
          size: 256
        }
      }
    }
  }
  attr {
    key: "shared_name"
    value {
      s: "embedding_9/embeddings"
    }
  }
}
node {
  name: "embedding_9/embeddings/IsInitialized/VarIsInitializedOp"
  op: "VarIsInitializedOp"
  input: "embedding_9/embeddings"
}
node {
  name: "embedding_9/embeddings/Assign"
  op: "AssignVariableOp"
  input: "embedding_9/embeddings"
  input: "embedding_9/embeddings/Initializer/random_uniform"
  attr {
    key: "dtype"
    value {
      type: DT_FLOAT
    }
  }
}
node {
  name: "embedding_9/embeddings/Read/ReadVariableOp"
  op: "ReadVariableOp"
  input: "embedding_9/embeddings"
  attr {
    key: "dtype"
    value {
      type: DT_FLOAT
    }
  }
}
node {
  name: "embedding_9/embedding_lookup"
  op: "ResourceGather"
  input: "embedding_9/embeddings"
  input: "unstack:9"
  attr {
    key: "Tindices"
    value {
      type: DT_INT64
    }
  }
  attr {
    key: "_class"
    value {
      list {
        s: "loc:@embedding_9/embeddings"
      }
    }
  }
  attr {
    key: "batch_dims"
    value {
      i: 0
    }
  }
  attr {
    key: "dtype"
    value {
      type: DT_FLOAT
    }
  }
  attr {
    key: "validate_indices"
    value {
      b: true
    }
  }
}
node {
  name: "embedding_9/embedding_lookup/Identity"
  op: "Identity"
  input: "embedding_9/embedding_lookup"
  attr {
    key: "T"
    value {
      type: DT_FLOAT
    }
  }
  attr {
    key: "_class"
    value {
      list {
        s: "loc:@embedding_9/embeddings"
      }
    }
  }
}
node {
  name: "embedding_9/embedding_lookup/Identity_1"
  op: "Identity"
  input: "embedding_9/embedding_lookup/Identity"
  attr {
    key: "T"
    value {
      type: DT_FLOAT
    }
  }
}
node {
  name: "embedding_10/embeddings/Initializer/random_uniform/shape"
  op: "Const"
  attr {
    key: "_class"
    value {
      list {
        s: "loc:@embedding_10/embeddings"
      }
    }
  }
  attr {
    key: "dtype"
    value {
      type: DT_INT32
    }
  }
  attr {
    key: "value"
    value {
      tensor {
        dtype: DT_INT32
        tensor_shape {
          dim {
            size: 2
          }
        }
        tensor_content: " N\000\000\000\001\000\000"
      }
    }
  }
}
node {
  name: "embedding_10/embeddings/Initializer/random_uniform/min"
  op: "Const"
  attr {
    key: "_class"
    value {
      list {
        s: "loc:@embedding_10/embeddings"
      }
    }
  }
  attr {
    key: "dtype"
    value {
      type: DT_FLOAT
    }
  }
  attr {
    key: "value"
    value {
      tensor {
        dtype: DT_FLOAT
        tensor_shape {
        }
        float_val: -0.05000000074505806
      }
    }
  }
}
node {
  name: "embedding_10/embeddings/Initializer/random_uniform/max"
  op: "Const"
  attr {
    key: "_class"
    value {
      list {
        s: "loc:@embedding_10/embeddings"
      }
    }
  }
  attr {
    key: "dtype"
    value {
      type: DT_FLOAT
    }
  }
  attr {
    key: "value"
    value {
      tensor {
        dtype: DT_FLOAT
        tensor_shape {
        }
        float_val: 0.05000000074505806
      }
    }
  }
}
node {
  name: "embedding_10/embeddings/Initializer/random_uniform/RandomUniform"
  op: "RandomUniform"
  input: "embedding_10/embeddings/Initializer/random_uniform/shape"
  attr {
    key: "T"
    value {
      type: DT_INT32
    }
  }
  attr {
    key: "_class"
    value {
      list {
        s: "loc:@embedding_10/embeddings"
      }
    }
  }
  attr {
    key: "dtype"
    value {
      type: DT_FLOAT
    }
  }
  attr {
    key: "seed"
    value {
      i: 0
    }
  }
  attr {
    key: "seed2"
    value {
      i: 0
    }
  }
}
node {
  name: "embedding_10/embeddings/Initializer/random_uniform/sub"
  op: "Sub"
  input: "embedding_10/embeddings/Initializer/random_uniform/max"
  input: "embedding_10/embeddings/Initializer/random_uniform/min"
  attr {
    key: "T"
    value {
      type: DT_FLOAT
    }
  }
  attr {
    key: "_class"
    value {
      list {
        s: "loc:@embedding_10/embeddings"
      }
    }
  }
}
node {
  name: "embedding_10/embeddings/Initializer/random_uniform/mul"
  op: "Mul"
  input: "embedding_10/embeddings/Initializer/random_uniform/RandomUniform"
  input: "embedding_10/embeddings/Initializer/random_uniform/sub"
  attr {
    key: "T"
    value {
      type: DT_FLOAT
    }
  }
  attr {
    key: "_class"
    value {
      list {
        s: "loc:@embedding_10/embeddings"
      }
    }
  }
}
node {
  name: "embedding_10/embeddings/Initializer/random_uniform"
  op: "Add"
  input: "embedding_10/embeddings/Initializer/random_uniform/mul"
  input: "embedding_10/embeddings/Initializer/random_uniform/min"
  attr {
    key: "T"
    value {
      type: DT_FLOAT
    }
  }
  attr {
    key: "_class"
    value {
      list {
        s: "loc:@embedding_10/embeddings"
      }
    }
  }
}
node {
  name: "embedding_10/embeddings"
  op: "VarHandleOp"
  attr {
    key: "_class"
    value {
      list {
        s: "loc:@embedding_10/embeddings"
      }
    }
  }
    
  attr {
    key: "container"
    value {
      s: ""
    }
  }
  attr {
    key: "dtype"
    value {
      type: DT_FLOAT
    }
  }
  attr {
    key: "shape"
    value {
      shape {
        dim {
          size: 20000
        }
        dim {
          size: 256
        }
      }
    }
  }
  attr {
    key: "shared_name"
    value {
      s: "embedding_10/embeddings"
    }
  }
}
node {
  name: "embedding_10/embeddings/IsInitialized/VarIsInitializedOp"
  op: "VarIsInitializedOp"
  input: "embedding_10/embeddings"
}
node {
  name: "embedding_10/embeddings/Assign"
  op: "AssignVariableOp"
  input: "embedding_10/embeddings"
  input: "embedding_10/embeddings/Initializer/random_uniform"
  attr {
    key: "dtype"
    value {
      type: DT_FLOAT
    }
  }
}
node {
  name: "embedding_10/embeddings/Read/ReadVariableOp"
  op: "ReadVariableOp"
  input: "embedding_10/embeddings"
  attr {
    key: "dtype"
    value {
      type: DT_FLOAT
    }
  }
}
node {
  name: "embedding_10/embedding_lookup"
  op: "ResourceGather"
  input: "embedding_10/embeddings"
  input: "unstack:10"
  attr {
    key: "Tindices"
    value {
      type: DT_INT64
    }
  }
  attr {
    key: "_class"
    value {
      list {
        s: "loc:@embedding_10/embeddings"
      }
    }
  }
  attr {
    key: "batch_dims"
    value {
      i: 0
    }
  }
  attr {
    key: "dtype"
    value {
      type: DT_FLOAT
    }
  }
  attr {
    key: "validate_indices"
    value {
      b: true
    }
  }
}
node {
  name: "embedding_10/embedding_lookup/Identity"
  op: "Identity"
  input: "embedding_10/embedding_lookup"
  attr {
    key: "T"
    value {
      type: DT_FLOAT
    }
  }
  attr {
    key: "_class"
    value {
      list {
        s: "loc:@embedding_10/embeddings"
      }
    }
  }
}
node {
  name: "embedding_10/embedding_lookup/Identity_1"
  op: "Identity"
  input: "embedding_10/embedding_lookup/Identity"
  attr {
    key: "T"
    value {
      type: DT_FLOAT
    }
  }
}
node {
  name: "embedding_11/embeddings/Initializer/random_uniform/shape"
  op: "Const"
  attr {
    key: "_class"
    value {
      list {
        s: "loc:@embedding_11/embeddings"
      }
    }
  }
  attr {
    key: "dtype"
    value {
      type: DT_INT32
    }
  }
  attr {
    key: "value"
    value {
      tensor {
        dtype: DT_INT32
        tensor_shape {
          dim {
            size: 2
          }
        }
        tensor_content: " N\000\000\000\001\000\000"
      }
    }
  }
}
node {
  name: "embedding_11/embeddings/Initializer/random_uniform/min"
  op: "Const"
  attr {
    key: "_class"
    value {
      list {
        s: "loc:@embedding_11/embeddings"
      }
    }
  }
  attr {
    key: "dtype"
    value {
      type: DT_FLOAT
    }
  }
  attr {
    key: "value"
    value {
      tensor {
        dtype: DT_FLOAT
        tensor_shape {
        }
        float_val: -0.05000000074505806
      }
    }
  }
}
node {
  name: "embedding_11/embeddings/Initializer/random_uniform/max"
  op: "Const"
  attr {
    key: "_class"
    value {
      list {
        s: "loc:@embedding_11/embeddings"
      }
    }
  }
  attr {
    key: "dtype"
    value {
      type: DT_FLOAT
    }
  }
  attr {
    key: "value"
    value {
      tensor {
        dtype: DT_FLOAT
        tensor_shape {
        }
        float_val: 0.05000000074505806
      }
    }
  }
}
node {
  name: "embedding_11/embeddings/Initializer/random_uniform/RandomUniform"
  op: "RandomUniform"
  input: "embedding_11/embeddings/Initializer/random_uniform/shape"
  attr {
    key: "T"
    value {
      type: DT_INT32
    }
  }
  attr {
    key: "_class"
    value {
      list {
        s: "loc:@embedding_11/embeddings"
      }
    }
  }
  attr {
    key: "dtype"
    value {
      type: DT_FLOAT
    }
  }
  attr {
    key: "seed"
    value {
      i: 0
    }
  }
  attr {
    key: "seed2"
    value {
      i: 0
    }
  }
}
node {
  name: "embedding_11/embeddings/Initializer/random_uniform/sub"
  op: "Sub"
  input: "embedding_11/embeddings/Initializer/random_uniform/max"
  input: "embedding_11/embeddings/Initializer/random_uniform/min"
  attr {
    key: "T"
    value {
      type: DT_FLOAT
    }
  }
  attr {
    key: "_class"
    value {
      list {
        s: "loc:@embedding_11/embeddings"
      }
    }
  }
}
node {
  name: "embedding_11/embeddings/Initializer/random_uniform/mul"
  op: "Mul"
  input: "embedding_11/embeddings/Initializer/random_uniform/RandomUniform"
  input: "embedding_11/embeddings/Initializer/random_uniform/sub"
  attr {
    key: "T"
    value {
      type: DT_FLOAT
    }
  }
  attr {
    key: "_class"
    value {
      list {
        s: "loc:@embedding_11/embeddings"
      }
    }
  }
}
node {
  name: "embedding_11/embeddings/Initializer/random_uniform"
  op: "Add"
  input: "embedding_11/embeddings/Initializer/random_uniform/mul"
  input: "embedding_11/embeddings/Initializer/random_uniform/min"
  attr {
    key: "T"
    value {
      type: DT_FLOAT
    }
  }
  attr {
    key: "_class"
    value {
      list {
        s: "loc:@embedding_11/embeddings"
      }
    }
  }
}
node {
  name: "embedding_11/embeddings"
  op: "VarHandleOp"
  attr {
    key: "_class"
    value {
      list {
        s: "loc:@embedding_11/embeddings"
      }
    }
  }
    
  attr {
    key: "container"
    value {
      s: ""
    }
  }
  attr {
    key: "dtype"
    value {
      type: DT_FLOAT
    }
  }
  attr {
    key: "shape"
    value {
      shape {
        dim {
          size: 20000
        }
        dim {
          size: 256
        }
      }
    }
  }
  attr {
    key: "shared_name"
    value {
      s: "embedding_11/embeddings"
    }
  }
}
node {
  name: "embedding_11/embeddings/IsInitialized/VarIsInitializedOp"
  op: "VarIsInitializedOp"
  input: "embedding_11/embeddings"
}
node {
  name: "embedding_11/embeddings/Assign"
  op: "AssignVariableOp"
  input: "embedding_11/embeddings"
  input: "embedding_11/embeddings/Initializer/random_uniform"
  attr {
    key: "dtype"
    value {
      type: DT_FLOAT
    }
  }
}
node {
  name: "embedding_11/embeddings/Read/ReadVariableOp"
  op: "ReadVariableOp"
  input: "embedding_11/embeddings"
  attr {
    key: "dtype"
    value {
      type: DT_FLOAT
    }
  }
}
node {
  name: "embedding_11/embedding_lookup"
  op: "ResourceGather"
  input: "embedding_11/embeddings"
  input: "unstack:11"
  attr {
    key: "Tindices"
    value {
      type: DT_INT64
    }
  }
  attr {
    key: "_class"
    value {
      list {
        s: "loc:@embedding_11/embeddings"
      }
    }
  }
  attr {
    key: "batch_dims"
    value {
      i: 0
    }
  }
  attr {
    key: "dtype"
    value {
      type: DT_FLOAT
    }
  }
  attr {
    key: "validate_indices"
    value {
      b: true
    }
  }
}
node {
  name: "embedding_11/embedding_lookup/Identity"
  op: "Identity"
  input: "embedding_11/embedding_lookup"
  attr {
    key: "T"
    value {
      type: DT_FLOAT
    }
  }
  attr {
    key: "_class"
    value {
      list {
        s: "loc:@embedding_11/embeddings"
      }
    }
  }
}
node {
  name: "embedding_11/embedding_lookup/Identity_1"
  op: "Identity"
  input: "embedding_11/embedding_lookup/Identity"
  attr {
    key: "T"
    value {
      type: DT_FLOAT
    }
  }
}
node {
  name: "embedding_12/embeddings/Initializer/random_uniform/shape"
  op: "Const"
  attr {
    key: "_class"
    value {
      list {
        s: "loc:@embedding_12/embeddings"
      }
    }
  }
  attr {
    key: "dtype"
    value {
      type: DT_INT32
    }
  }
  attr {
    key: "value"
    value {
      tensor {
        dtype: DT_INT32
        tensor_shape {
          dim {
            size: 2
          }
        }
        tensor_content: " N\000\000\000\001\000\000"
      }
    }
  }
}
node {
  name: "embedding_12/embeddings/Initializer/random_uniform/min"
  op: "Const"
  attr {
    key: "_class"
    value {
      list {
        s: "loc:@embedding_12/embeddings"
      }
    }
  }
  attr {
    key: "dtype"
    value {
      type: DT_FLOAT
    }
  }
  attr {
    key: "value"
    value {
      tensor {
        dtype: DT_FLOAT
        tensor_shape {
        }
        float_val: -0.05000000074505806
      }
    }
  }
}
node {
  name: "embedding_12/embeddings/Initializer/random_uniform/max"
  op: "Const"
  attr {
    key: "_class"
    value {
      list {
        s: "loc:@embedding_12/embeddings"
      }
    }
  }
  attr {
    key: "dtype"
    value {
      type: DT_FLOAT
    }
  }
  attr {
    key: "value"
    value {
      tensor {
        dtype: DT_FLOAT
        tensor_shape {
        }
        float_val: 0.05000000074505806
      }
    }
  }
}
node {
  name: "embedding_12/embeddings/Initializer/random_uniform/RandomUniform"
  op: "RandomUniform"
  input: "embedding_12/embeddings/Initializer/random_uniform/shape"
  attr {
    key: "T"
    value {
      type: DT_INT32
    }
  }
  attr {
    key: "_class"
    value {
      list {
        s: "loc:@embedding_12/embeddings"
      }
    }
  }
  attr {
    key: "dtype"
    value {
      type: DT_FLOAT
    }
  }
  attr {
    key: "seed"
    value {
      i: 0
    }
  }
  attr {
    key: "seed2"
    value {
      i: 0
    }
  }
}
node {
  name: "embedding_12/embeddings/Initializer/random_uniform/sub"
  op: "Sub"
  input: "embedding_12/embeddings/Initializer/random_uniform/max"
  input: "embedding_12/embeddings/Initializer/random_uniform/min"
  attr {
    key: "T"
    value {
      type: DT_FLOAT
    }
  }
  attr {
    key: "_class"
    value {
      list {
        s: "loc:@embedding_12/embeddings"
      }
    }
  }
}
node {
  name: "embedding_12/embeddings/Initializer/random_uniform/mul"
  op: "Mul"
  input: "embedding_12/embeddings/Initializer/random_uniform/RandomUniform"
  input: "embedding_12/embeddings/Initializer/random_uniform/sub"
  attr {
    key: "T"
    value {
      type: DT_FLOAT
    }
  }
  attr {
    key: "_class"
    value {
      list {
        s: "loc:@embedding_12/embeddings"
      }
    }
  }
}
node {
  name: "embedding_12/embeddings/Initializer/random_uniform"
  op: "Add"
  input: "embedding_12/embeddings/Initializer/random_uniform/mul"
  input: "embedding_12/embeddings/Initializer/random_uniform/min"
  attr {
    key: "T"
    value {
      type: DT_FLOAT
    }
  }
  attr {
    key: "_class"
    value {
      list {
        s: "loc:@embedding_12/embeddings"
      }
    }
  }
}
node {
  name: "embedding_12/embeddings"
  op: "VarHandleOp"
  attr {
    key: "_class"
    value {
      list {
        s: "loc:@embedding_12/embeddings"
      }
    }
  }
    
  attr {
    key: "container"
    value {
      s: ""
    }
  }
  attr {
    key: "dtype"
    value {
      type: DT_FLOAT
    }
  }
  attr {
    key: "shape"
    value {
      shape {
        dim {
          size: 20000
        }
        dim {
          size: 256
        }
      }
    }
  }
  attr {
    key: "shared_name"
    value {
      s: "embedding_12/embeddings"
    }
  }
}
node {
  name: "embedding_12/embeddings/IsInitialized/VarIsInitializedOp"
  op: "VarIsInitializedOp"
  input: "embedding_12/embeddings"
}
node {
  name: "embedding_12/embeddings/Assign"
  op: "AssignVariableOp"
  input: "embedding_12/embeddings"
  input: "embedding_12/embeddings/Initializer/random_uniform"
  attr {
    key: "dtype"
    value {
      type: DT_FLOAT
    }
  }
}
node {
  name: "embedding_12/embeddings/Read/ReadVariableOp"
  op: "ReadVariableOp"
  input: "embedding_12/embeddings"
  attr {
    key: "dtype"
    value {
      type: DT_FLOAT
    }
  }
}
node {
  name: "embedding_12/embedding_lookup"
  op: "ResourceGather"
  input: "embedding_12/embeddings"
  input: "unstack:12"
  attr {
    key: "Tindices"
    value {
      type: DT_INT64
    }
  }
  attr {
    key: "_class"
    value {
      list {
        s: "loc:@embedding_12/embeddings"
      }
    }
  }
  attr {
    key: "batch_dims"
    value {
      i: 0
    }
  }
  attr {
    key: "dtype"
    value {
      type: DT_FLOAT
    }
  }
  attr {
    key: "validate_indices"
    value {
      b: true
    }
  }
}
node {
  name: "embedding_12/embedding_lookup/Identity"
  op: "Identity"
  input: "embedding_12/embedding_lookup"
  attr {
    key: "T"
    value {
      type: DT_FLOAT
    }
  }
  attr {
    key: "_class"
    value {
      list {
        s: "loc:@embedding_12/embeddings"
      }
    }
  }
}
node {
  name: "embedding_12/embedding_lookup/Identity_1"
  op: "Identity"
  input: "embedding_12/embedding_lookup/Identity"
  attr {
    key: "T"
    value {
      type: DT_FLOAT
    }
  }
}
node {
  name: "embedding_13/embeddings/Initializer/random_uniform/shape"
  op: "Const"
  attr {
    key: "_class"
    value {
      list {
        s: "loc:@embedding_13/embeddings"
      }
    }
  }
  attr {
    key: "dtype"
    value {
      type: DT_INT32
    }
  }
  attr {
    key: "value"
    value {
      tensor {
        dtype: DT_INT32
        tensor_shape {
          dim {
            size: 2
          }
        }
        tensor_content: " N\000\000\000\001\000\000"
      }
    }
  }
}
node {
  name: "embedding_13/embeddings/Initializer/random_uniform/min"
  op: "Const"
  attr {
    key: "_class"
    value {
      list {
        s: "loc:@embedding_13/embeddings"
      }
    }
  }
  attr {
    key: "dtype"
    value {
      type: DT_FLOAT
    }
  }
  attr {
    key: "value"
    value {
      tensor {
        dtype: DT_FLOAT
        tensor_shape {
        }
        float_val: -0.05000000074505806
      }
    }
  }
}
node {
  name: "embedding_13/embeddings/Initializer/random_uniform/max"
  op: "Const"
  attr {
    key: "_class"
    value {
      list {
        s: "loc:@embedding_13/embeddings"
      }
    }
  }
  attr {
    key: "dtype"
    value {
      type: DT_FLOAT
    }
  }
  attr {
    key: "value"
    value {
      tensor {
        dtype: DT_FLOAT
        tensor_shape {
        }
        float_val: 0.05000000074505806
      }
    }
  }
}
node {
  name: "embedding_13/embeddings/Initializer/random_uniform/RandomUniform"
  op: "RandomUniform"
  input: "embedding_13/embeddings/Initializer/random_uniform/shape"
  attr {
    key: "T"
    value {
      type: DT_INT32
    }
  }
  attr {
    key: "_class"
    value {
      list {
        s: "loc:@embedding_13/embeddings"
      }
    }
  }
  attr {
    key: "dtype"
    value {
      type: DT_FLOAT
    }
  }
  attr {
    key: "seed"
    value {
      i: 0
    }
  }
  attr {
    key: "seed2"
    value {
      i: 0
    }
  }
}
node {
  name: "embedding_13/embeddings/Initializer/random_uniform/sub"
  op: "Sub"
  input: "embedding_13/embeddings/Initializer/random_uniform/max"
  input: "embedding_13/embeddings/Initializer/random_uniform/min"
  attr {
    key: "T"
    value {
      type: DT_FLOAT
    }
  }
  attr {
    key: "_class"
    value {
      list {
        s: "loc:@embedding_13/embeddings"
      }
    }
  }
}
node {
  name: "embedding_13/embeddings/Initializer/random_uniform/mul"
  op: "Mul"
  input: "embedding_13/embeddings/Initializer/random_uniform/RandomUniform"
  input: "embedding_13/embeddings/Initializer/random_uniform/sub"
  attr {
    key: "T"
    value {
      type: DT_FLOAT
    }
  }
  attr {
    key: "_class"
    value {
      list {
        s: "loc:@embedding_13/embeddings"
      }
    }
  }
}
node {
  name: "embedding_13/embeddings/Initializer/random_uniform"
  op: "Add"
  input: "embedding_13/embeddings/Initializer/random_uniform/mul"
  input: "embedding_13/embeddings/Initializer/random_uniform/min"
  attr {
    key: "T"
    value {
      type: DT_FLOAT
    }
  }
  attr {
    key: "_class"
    value {
      list {
        s: "loc:@embedding_13/embeddings"
      }
    }
  }
}
node {
  name: "embedding_13/embeddings"
  op: "VarHandleOp"
  attr {
    key: "_class"
    value {
      list {
        s: "loc:@embedding_13/embeddings"
      }
    }
  }
    
  attr {
    key: "container"
    value {
      s: ""
    }
  }
  attr {
    key: "dtype"
    value {
      type: DT_FLOAT
    }
  }
  attr {
    key: "shape"
    value {
      shape {
        dim {
          size: 20000
        }
        dim {
          size: 256
        }
      }
    }
  }
  attr {
    key: "shared_name"
    value {
      s: "embedding_13/embeddings"
    }
  }
}
node {
  name: "embedding_13/embeddings/IsInitialized/VarIsInitializedOp"
  op: "VarIsInitializedOp"
  input: "embedding_13/embeddings"
}
node {
  name: "embedding_13/embeddings/Assign"
  op: "AssignVariableOp"
  input: "embedding_13/embeddings"
  input: "embedding_13/embeddings/Initializer/random_uniform"
  attr {
    key: "dtype"
    value {
      type: DT_FLOAT
    }
  }
}
node {
  name: "embedding_13/embeddings/Read/ReadVariableOp"
  op: "ReadVariableOp"
  input: "embedding_13/embeddings"
  attr {
    key: "dtype"
    value {
      type: DT_FLOAT
    }
  }
}
node {
  name: "embedding_13/embedding_lookup"
  op: "ResourceGather"
  input: "embedding_13/embeddings"
  input: "unstack:13"
  attr {
    key: "Tindices"
    value {
      type: DT_INT64
    }
  }
  attr {
    key: "_class"
    value {
      list {
        s: "loc:@embedding_13/embeddings"
      }
    }
  }
  attr {
    key: "batch_dims"
    value {
      i: 0
    }
  }
  attr {
    key: "dtype"
    value {
      type: DT_FLOAT
    }
  }
  attr {
    key: "validate_indices"
    value {
      b: true
    }
  }
}
node {
  name: "embedding_13/embedding_lookup/Identity"
  op: "Identity"
  input: "embedding_13/embedding_lookup"
  attr {
    key: "T"
    value {
      type: DT_FLOAT
    }
  }
  attr {
    key: "_class"
    value {
      list {
        s: "loc:@embedding_13/embeddings"
      }
    }
  }
}
node {
  name: "embedding_13/embedding_lookup/Identity_1"
  op: "Identity"
  input: "embedding_13/embedding_lookup/Identity"
  attr {
    key: "T"
    value {
      type: DT_FLOAT
    }
  }
}
node {
  name: "embedding_14/embeddings/Initializer/random_uniform/shape"
  op: "Const"
  attr {
    key: "_class"
    value {
      list {
        s: "loc:@embedding_14/embeddings"
      }
    }
  }
  attr {
    key: "dtype"
    value {
      type: DT_INT32
    }
  }
  attr {
    key: "value"
    value {
      tensor {
        dtype: DT_INT32
        tensor_shape {
          dim {
            size: 2
          }
        }
        tensor_content: " N\000\000\000\001\000\000"
      }
    }
  }
}
node {
  name: "embedding_14/embeddings/Initializer/random_uniform/min"
  op: "Const"
  attr {
    key: "_class"
    value {
      list {
        s: "loc:@embedding_14/embeddings"
      }
    }
  }
  attr {
    key: "dtype"
    value {
      type: DT_FLOAT
    }
  }
  attr {
    key: "value"
    value {
      tensor {
        dtype: DT_FLOAT
        tensor_shape {
        }
        float_val: -0.05000000074505806
      }
    }
  }
}
node {
  name: "embedding_14/embeddings/Initializer/random_uniform/max"
  op: "Const"
  attr {
    key: "_class"
    value {
      list {
        s: "loc:@embedding_14/embeddings"
      }
    }
  }
  attr {
    key: "dtype"
    value {
      type: DT_FLOAT
    }
  }
  attr {
    key: "value"
    value {
      tensor {
        dtype: DT_FLOAT
        tensor_shape {
        }
        float_val: 0.05000000074505806
      }
    }
  }
}
node {
  name: "embedding_14/embeddings/Initializer/random_uniform/RandomUniform"
  op: "RandomUniform"
  input: "embedding_14/embeddings/Initializer/random_uniform/shape"
  attr {
    key: "T"
    value {
      type: DT_INT32
    }
  }
  attr {
    key: "_class"
    value {
      list {
        s: "loc:@embedding_14/embeddings"
      }
    }
  }
  attr {
    key: "dtype"
    value {
      type: DT_FLOAT
    }
  }
  attr {
    key: "seed"
    value {
      i: 0
    }
  }
  attr {
    key: "seed2"
    value {
      i: 0
    }
  }
}
node {
  name: "embedding_14/embeddings/Initializer/random_uniform/sub"
  op: "Sub"
  input: "embedding_14/embeddings/Initializer/random_uniform/max"
  input: "embedding_14/embeddings/Initializer/random_uniform/min"
  attr {
    key: "T"
    value {
      type: DT_FLOAT
    }
  }
  attr {
    key: "_class"
    value {
      list {
        s: "loc:@embedding_14/embeddings"
      }
    }
  }
}
node {
  name: "embedding_14/embeddings/Initializer/random_uniform/mul"
  op: "Mul"
  input: "embedding_14/embeddings/Initializer/random_uniform/RandomUniform"
  input: "embedding_14/embeddings/Initializer/random_uniform/sub"
  attr {
    key: "T"
    value {
      type: DT_FLOAT
    }
  }
  attr {
    key: "_class"
    value {
      list {
        s: "loc:@embedding_14/embeddings"
      }
    }
  }
}
node {
  name: "embedding_14/embeddings/Initializer/random_uniform"
  op: "Add"
  input: "embedding_14/embeddings/Initializer/random_uniform/mul"
  input: "embedding_14/embeddings/Initializer/random_uniform/min"
  attr {
    key: "T"
    value {
      type: DT_FLOAT
    }
  }
  attr {
    key: "_class"
    value {
      list {
        s: "loc:@embedding_14/embeddings"
      }
    }
  }
}
node {
  name: "embedding_14/embeddings"
  op: "VarHandleOp"
  attr {
    key: "_class"
    value {
      list {
        s: "loc:@embedding_14/embeddings"
      }
    }
  }
    
  attr {
    key: "container"
    value {
      s: ""
    }
  }
  attr {
    key: "dtype"
    value {
      type: DT_FLOAT
    }
  }
  attr {
    key: "shape"
    value {
      shape {
        dim {
          size: 20000
        }
        dim {
          size: 256
        }
      }
    }
  }
  attr {
    key: "shared_name"
    value {
      s: "embedding_14/embeddings"
    }
  }
}
node {
  name: "embedding_14/embeddings/IsInitialized/VarIsInitializedOp"
  op: "VarIsInitializedOp"
  input: "embedding_14/embeddings"
}
node {
  name: "embedding_14/embeddings/Assign"
  op: "AssignVariableOp"
  input: "embedding_14/embeddings"
  input: "embedding_14/embeddings/Initializer/random_uniform"
  attr {
    key: "dtype"
    value {
      type: DT_FLOAT
    }
  }
}
node {
  name: "embedding_14/embeddings/Read/ReadVariableOp"
  op: "ReadVariableOp"
  input: "embedding_14/embeddings"
  attr {
    key: "dtype"
    value {
      type: DT_FLOAT
    }
  }
}
node {
  name: "embedding_14/embedding_lookup"
  op: "ResourceGather"
  input: "embedding_14/embeddings"
  input: "unstack:14"
  attr {
    key: "Tindices"
    value {
      type: DT_INT64
    }
  }
  attr {
    key: "_class"
    value {
      list {
        s: "loc:@embedding_14/embeddings"
      }
    }
  }
  attr {
    key: "batch_dims"
    value {
      i: 0
    }
  }
  attr {
    key: "dtype"
    value {
      type: DT_FLOAT
    }
  }
  attr {
    key: "validate_indices"
    value {
      b: true
    }
  }
}
node {
  name: "embedding_14/embedding_lookup/Identity"
  op: "Identity"
  input: "embedding_14/embedding_lookup"
  attr {
    key: "T"
    value {
      type: DT_FLOAT
    }
  }
  attr {
    key: "_class"
    value {
      list {
        s: "loc:@embedding_14/embeddings"
      }
    }
  }
}
node {
  name: "embedding_14/embedding_lookup/Identity_1"
  op: "Identity"
  input: "embedding_14/embedding_lookup/Identity"
  attr {
    key: "T"
    value {
      type: DT_FLOAT
    }
  }
}
node {
  name: "embedding_15/embeddings/Initializer/random_uniform/shape"
  op: "Const"
  attr {
    key: "_class"
    value {
      list {
        s: "loc:@embedding_15/embeddings"
      }
    }
  }
  attr {
    key: "dtype"
    value {
      type: DT_INT32
    }
  }
  attr {
    key: "value"
    value {
      tensor {
        dtype: DT_INT32
        tensor_shape {
          dim {
            size: 2
          }
        }
        tensor_content: " N\000\000\000\001\000\000"
      }
    }
  }
}
node {
  name: "embedding_15/embeddings/Initializer/random_uniform/min"
  op: "Const"
  attr {
    key: "_class"
    value {
      list {
        s: "loc:@embedding_15/embeddings"
      }
    }
  }
  attr {
    key: "dtype"
    value {
      type: DT_FLOAT
    }
  }
  attr {
    key: "value"
    value {
      tensor {
        dtype: DT_FLOAT
        tensor_shape {
        }
        float_val: -0.05000000074505806
      }
    }
  }
}
node {
  name: "embedding_15/embeddings/Initializer/random_uniform/max"
  op: "Const"
  attr {
    key: "_class"
    value {
      list {
        s: "loc:@embedding_15/embeddings"
      }
    }
  }
  attr {
    key: "dtype"
    value {
      type: DT_FLOAT
    }
  }
  attr {
    key: "value"
    value {
      tensor {
        dtype: DT_FLOAT
        tensor_shape {
        }
        float_val: 0.05000000074505806
      }
    }
  }
}
node {
  name: "embedding_15/embeddings/Initializer/random_uniform/RandomUniform"
  op: "RandomUniform"
  input: "embedding_15/embeddings/Initializer/random_uniform/shape"
  attr {
    key: "T"
    value {
      type: DT_INT32
    }
  }
  attr {
    key: "_class"
    value {
      list {
        s: "loc:@embedding_15/embeddings"
      }
    }
  }
  attr {
    key: "dtype"
    value {
      type: DT_FLOAT
    }
  }
  attr {
    key: "seed"
    value {
      i: 0
    }
  }
  attr {
    key: "seed2"
    value {
      i: 0
    }
  }
}
node {
  name: "embedding_15/embeddings/Initializer/random_uniform/sub"
  op: "Sub"
  input: "embedding_15/embeddings/Initializer/random_uniform/max"
  input: "embedding_15/embeddings/Initializer/random_uniform/min"
  attr {
    key: "T"
    value {
      type: DT_FLOAT
    }
  }
  attr {
    key: "_class"
    value {
      list {
        s: "loc:@embedding_15/embeddings"
      }
    }
  }
}
node {
  name: "embedding_15/embeddings/Initializer/random_uniform/mul"
  op: "Mul"
  input: "embedding_15/embeddings/Initializer/random_uniform/RandomUniform"
  input: "embedding_15/embeddings/Initializer/random_uniform/sub"
  attr {
    key: "T"
    value {
      type: DT_FLOAT
    }
  }
  attr {
    key: "_class"
    value {
      list {
        s: "loc:@embedding_15/embeddings"
      }
    }
  }
}
node {
  name: "embedding_15/embeddings/Initializer/random_uniform"
  op: "Add"
  input: "embedding_15/embeddings/Initializer/random_uniform/mul"
  input: "embedding_15/embeddings/Initializer/random_uniform/min"
  attr {
    key: "T"
    value {
      type: DT_FLOAT
    }
  }
  attr {
    key: "_class"
    value {
      list {
        s: "loc:@embedding_15/embeddings"
      }
    }
  }
}
node {
  name: "embedding_15/embeddings"
  op: "VarHandleOp"
  attr {
    key: "_class"
    value {
      list {
        s: "loc:@embedding_15/embeddings"
      }
    }
  }
    
  attr {
    key: "container"
    value {
      s: ""
    }
  }
  attr {
    key: "dtype"
    value {
      type: DT_FLOAT
    }
  }
  attr {
    key: "shape"
    value {
      shape {
        dim {
          size: 20000
        }
        dim {
          size: 256
        }
      }
    }
  }
  attr {
    key: "shared_name"
    value {
      s: "embedding_15/embeddings"
    }
  }
}
node {
  name: "embedding_15/embeddings/IsInitialized/VarIsInitializedOp"
  op: "VarIsInitializedOp"
  input: "embedding_15/embeddings"
}
node {
  name: "embedding_15/embeddings/Assign"
  op: "AssignVariableOp"
  input: "embedding_15/embeddings"
  input: "embedding_15/embeddings/Initializer/random_uniform"
  attr {
    key: "dtype"
    value {
      type: DT_FLOAT
    }
  }
}
node {
  name: "embedding_15/embeddings/Read/ReadVariableOp"
  op: "ReadVariableOp"
  input: "embedding_15/embeddings"
  attr {
    key: "dtype"
    value {
      type: DT_FLOAT
    }
  }
}
node {
  name: "embedding_15/embedding_lookup"
  op: "ResourceGather"
  input: "embedding_15/embeddings"
  input: "unstack:15"
  attr {
    key: "Tindices"
    value {
      type: DT_INT64
    }
  }
  attr {
    key: "_class"
    value {
      list {
        s: "loc:@embedding_15/embeddings"
      }
    }
  }
  attr {
    key: "batch_dims"
    value {
      i: 0
    }
  }
  attr {
    key: "dtype"
    value {
      type: DT_FLOAT
    }
  }
  attr {
    key: "validate_indices"
    value {
      b: true
    }
  }
}
node {
  name: "embedding_15/embedding_lookup/Identity"
  op: "Identity"
  input: "embedding_15/embedding_lookup"
  attr {
    key: "T"
    value {
      type: DT_FLOAT
    }
  }
  attr {
    key: "_class"
    value {
      list {
        s: "loc:@embedding_15/embeddings"
      }
    }
  }
}
node {
  name: "embedding_15/embedding_lookup/Identity_1"
  op: "Identity"
  input: "embedding_15/embedding_lookup/Identity"
  attr {
    key: "T"
    value {
      type: DT_FLOAT
    }
  }
}
node {
  name: "embedding_16/embeddings/Initializer/random_uniform/shape"
  op: "Const"
  attr {
    key: "_class"
    value {
      list {
        s: "loc:@embedding_16/embeddings"
      }
    }
  }
  attr {
    key: "dtype"
    value {
      type: DT_INT32
    }
  }
  attr {
    key: "value"
    value {
      tensor {
        dtype: DT_INT32
        tensor_shape {
          dim {
            size: 2
          }
        }
        tensor_content: " N\000\000\000\001\000\000"
      }
    }
  }
}
node {
  name: "embedding_16/embeddings/Initializer/random_uniform/min"
  op: "Const"
  attr {
    key: "_class"
    value {
      list {
        s: "loc:@embedding_16/embeddings"
      }
    }
  }
  attr {
    key: "dtype"
    value {
      type: DT_FLOAT
    }
  }
  attr {
    key: "value"
    value {
      tensor {
        dtype: DT_FLOAT
        tensor_shape {
        }
        float_val: -0.05000000074505806
      }
    }
  }
}
node {
  name: "embedding_16/embeddings/Initializer/random_uniform/max"
  op: "Const"
  attr {
    key: "_class"
    value {
      list {
        s: "loc:@embedding_16/embeddings"
      }
    }
  }
  attr {
    key: "dtype"
    value {
      type: DT_FLOAT
    }
  }
  attr {
    key: "value"
    value {
      tensor {
        dtype: DT_FLOAT
        tensor_shape {
        }
        float_val: 0.05000000074505806
      }
    }
  }
}
node {
  name: "embedding_16/embeddings/Initializer/random_uniform/RandomUniform"
  op: "RandomUniform"
  input: "embedding_16/embeddings/Initializer/random_uniform/shape"
  attr {
    key: "T"
    value {
      type: DT_INT32
    }
  }
  attr {
    key: "_class"
    value {
      list {
        s: "loc:@embedding_16/embeddings"
      }
    }
  }
  attr {
    key: "dtype"
    value {
      type: DT_FLOAT
    }
  }
  attr {
    key: "seed"
    value {
      i: 0
    }
  }
  attr {
    key: "seed2"
    value {
      i: 0
    }
  }
}
node {
  name: "embedding_16/embeddings/Initializer/random_uniform/sub"
  op: "Sub"
  input: "embedding_16/embeddings/Initializer/random_uniform/max"
  input: "embedding_16/embeddings/Initializer/random_uniform/min"
  attr {
    key: "T"
    value {
      type: DT_FLOAT
    }
  }
  attr {
    key: "_class"
    value {
      list {
        s: "loc:@embedding_16/embeddings"
      }
    }
  }
}
node {
  name: "embedding_16/embeddings/Initializer/random_uniform/mul"
  op: "Mul"
  input: "embedding_16/embeddings/Initializer/random_uniform/RandomUniform"
  input: "embedding_16/embeddings/Initializer/random_uniform/sub"
  attr {
    key: "T"
    value {
      type: DT_FLOAT
    }
  }
  attr {
    key: "_class"
    value {
      list {
        s: "loc:@embedding_16/embeddings"
      }
    }
  }
}
node {
  name: "embedding_16/embeddings/Initializer/random_uniform"
  op: "Add"
  input: "embedding_16/embeddings/Initializer/random_uniform/mul"
  input: "embedding_16/embeddings/Initializer/random_uniform/min"
  attr {
    key: "T"
    value {
      type: DT_FLOAT
    }
  }
  attr {
    key: "_class"
    value {
      list {
        s: "loc:@embedding_16/embeddings"
      }
    }
  }
}
node {
  name: "embedding_16/embeddings"
  op: "VarHandleOp"
  attr {
    key: "_class"
    value {
      list {
        s: "loc:@embedding_16/embeddings"
      }
    }
  }
    
  attr {
    key: "container"
    value {
      s: ""
    }
  }
  attr {
    key: "dtype"
    value {
      type: DT_FLOAT
    }
  }
  attr {
    key: "shape"
    value {
      shape {
        dim {
          size: 20000
        }
        dim {
          size: 256
        }
      }
    }
  }
  attr {
    key: "shared_name"
    value {
      s: "embedding_16/embeddings"
    }
  }
}
node {
  name: "embedding_16/embeddings/IsInitialized/VarIsInitializedOp"
  op: "VarIsInitializedOp"
  input: "embedding_16/embeddings"
}
node {
  name: "embedding_16/embeddings/Assign"
  op: "AssignVariableOp"
  input: "embedding_16/embeddings"
  input: "embedding_16/embeddings/Initializer/random_uniform"
  attr {
    key: "dtype"
    value {
      type: DT_FLOAT
    }
  }
}
node {
  name: "embedding_16/embeddings/Read/ReadVariableOp"
  op: "ReadVariableOp"
  input: "embedding_16/embeddings"
  attr {
    key: "dtype"
    value {
      type: DT_FLOAT
    }
  }
}
node {
  name: "embedding_16/embedding_lookup"
  op: "ResourceGather"
  input: "embedding_16/embeddings"
  input: "unstack:16"
  attr {
    key: "Tindices"
    value {
      type: DT_INT64
    }
  }
  attr {
    key: "_class"
    value {
      list {
        s: "loc:@embedding_16/embeddings"
      }
    }
  }
  attr {
    key: "batch_dims"
    value {
      i: 0
    }
  }
  attr {
    key: "dtype"
    value {
      type: DT_FLOAT
    }
  }
  attr {
    key: "validate_indices"
    value {
      b: true
    }
  }
}
node {
  name: "embedding_16/embedding_lookup/Identity"
  op: "Identity"
  input: "embedding_16/embedding_lookup"
  attr {
    key: "T"
    value {
      type: DT_FLOAT
    }
  }
  attr {
    key: "_class"
    value {
      list {
        s: "loc:@embedding_16/embeddings"
      }
    }
  }
}
node {
  name: "embedding_16/embedding_lookup/Identity_1"
  op: "Identity"
  input: "embedding_16/embedding_lookup/Identity"
  attr {
    key: "T"
    value {
      type: DT_FLOAT
    }
  }
}
node {
  name: "embedding_17/embeddings/Initializer/random_uniform/shape"
  op: "Const"
  attr {
    key: "_class"
    value {
      list {
        s: "loc:@embedding_17/embeddings"
      }
    }
  }
  attr {
    key: "dtype"
    value {
      type: DT_INT32
    }
  }
  attr {
    key: "value"
    value {
      tensor {
        dtype: DT_INT32
        tensor_shape {
          dim {
            size: 2
          }
        }
        tensor_content: " N\000\000\000\001\000\000"
      }
    }
  }
}
node {
  name: "embedding_17/embeddings/Initializer/random_uniform/min"
  op: "Const"
  attr {
    key: "_class"
    value {
      list {
        s: "loc:@embedding_17/embeddings"
      }
    }
  }
  attr {
    key: "dtype"
    value {
      type: DT_FLOAT
    }
  }
  attr {
    key: "value"
    value {
      tensor {
        dtype: DT_FLOAT
        tensor_shape {
        }
        float_val: -0.05000000074505806
      }
    }
  }
}
node {
  name: "embedding_17/embeddings/Initializer/random_uniform/max"
  op: "Const"
  attr {
    key: "_class"
    value {
      list {
        s: "loc:@embedding_17/embeddings"
      }
    }
  }
  attr {
    key: "dtype"
    value {
      type: DT_FLOAT
    }
  }
  attr {
    key: "value"
    value {
      tensor {
        dtype: DT_FLOAT
        tensor_shape {
        }
        float_val: 0.05000000074505806
      }
    }
  }
}
node {
  name: "embedding_17/embeddings/Initializer/random_uniform/RandomUniform"
  op: "RandomUniform"
  input: "embedding_17/embeddings/Initializer/random_uniform/shape"
  attr {
    key: "T"
    value {
      type: DT_INT32
    }
  }
  attr {
    key: "_class"
    value {
      list {
        s: "loc:@embedding_17/embeddings"
      }
    }
  }
  attr {
    key: "dtype"
    value {
      type: DT_FLOAT
    }
  }
  attr {
    key: "seed"
    value {
      i: 0
    }
  }
  attr {
    key: "seed2"
    value {
      i: 0
    }
  }
}
node {
  name: "embedding_17/embeddings/Initializer/random_uniform/sub"
  op: "Sub"
  input: "embedding_17/embeddings/Initializer/random_uniform/max"
  input: "embedding_17/embeddings/Initializer/random_uniform/min"
  attr {
    key: "T"
    value {
      type: DT_FLOAT
    }
  }
  attr {
    key: "_class"
    value {
      list {
        s: "loc:@embedding_17/embeddings"
      }
    }
  }
}
node {
  name: "embedding_17/embeddings/Initializer/random_uniform/mul"
  op: "Mul"
  input: "embedding_17/embeddings/Initializer/random_uniform/RandomUniform"
  input: "embedding_17/embeddings/Initializer/random_uniform/sub"
  attr {
    key: "T"
    value {
      type: DT_FLOAT
    }
  }
  attr {
    key: "_class"
    value {
      list {
        s: "loc:@embedding_17/embeddings"
      }
    }
  }
}
node {
  name: "embedding_17/embeddings/Initializer/random_uniform"
  op: "Add"
  input: "embedding_17/embeddings/Initializer/random_uniform/mul"
  input: "embedding_17/embeddings/Initializer/random_uniform/min"
  attr {
    key: "T"
    value {
      type: DT_FLOAT
    }
  }
  attr {
    key: "_class"
    value {
      list {
        s: "loc:@embedding_17/embeddings"
      }
    }
  }
}
node {
  name: "embedding_17/embeddings"
  op: "VarHandleOp"
  attr {
    key: "_class"
    value {
      list {
        s: "loc:@embedding_17/embeddings"
      }
    }
  }
    
  attr {
    key: "container"
    value {
      s: ""
    }
  }
  attr {
    key: "dtype"
    value {
      type: DT_FLOAT
    }
  }
  attr {
    key: "shape"
    value {
      shape {
        dim {
          size: 20000
        }
        dim {
          size: 256
        }
      }
    }
  }
  attr {
    key: "shared_name"
    value {
      s: "embedding_17/embeddings"
    }
  }
}
node {
  name: "embedding_17/embeddings/IsInitialized/VarIsInitializedOp"
  op: "VarIsInitializedOp"
  input: "embedding_17/embeddings"
}
node {
  name: "embedding_17/embeddings/Assign"
  op: "AssignVariableOp"
  input: "embedding_17/embeddings"
  input: "embedding_17/embeddings/Initializer/random_uniform"
  attr {
    key: "dtype"
    value {
      type: DT_FLOAT
    }
  }
}
node {
  name: "embedding_17/embeddings/Read/ReadVariableOp"
  op: "ReadVariableOp"
  input: "embedding_17/embeddings"
  attr {
    key: "dtype"
    value {
      type: DT_FLOAT
    }
  }
}
node {
  name: "embedding_17/embedding_lookup"
  op: "ResourceGather"
  input: "embedding_17/embeddings"
  input: "unstack:17"
  attr {
    key: "Tindices"
    value {
      type: DT_INT64
    }
  }
  attr {
    key: "_class"
    value {
      list {
        s: "loc:@embedding_17/embeddings"
      }
    }
  }
  attr {
    key: "batch_dims"
    value {
      i: 0
    }
  }
  attr {
    key: "dtype"
    value {
      type: DT_FLOAT
    }
  }
  attr {
    key: "validate_indices"
    value {
      b: true
    }
  }
}
node {
  name: "embedding_17/embedding_lookup/Identity"
  op: "Identity"
  input: "embedding_17/embedding_lookup"
  attr {
    key: "T"
    value {
      type: DT_FLOAT
    }
  }
  attr {
    key: "_class"
    value {
      list {
        s: "loc:@embedding_17/embeddings"
      }
    }
  }
}
node {
  name: "embedding_17/embedding_lookup/Identity_1"
  op: "Identity"
  input: "embedding_17/embedding_lookup/Identity"
  attr {
    key: "T"
    value {
      type: DT_FLOAT
    }
  }
}
node {
  name: "embedding_18/embeddings/Initializer/random_uniform/shape"
  op: "Const"
  attr {
    key: "_class"
    value {
      list {
        s: "loc:@embedding_18/embeddings"
      }
    }
  }
  attr {
    key: "dtype"
    value {
      type: DT_INT32
    }
  }
  attr {
    key: "value"
    value {
      tensor {
        dtype: DT_INT32
        tensor_shape {
          dim {
            size: 2
          }
        }
        tensor_content: " N\000\000\000\001\000\000"
      }
    }
  }
}
node {
  name: "embedding_18/embeddings/Initializer/random_uniform/min"
  op: "Const"
  attr {
    key: "_class"
    value {
      list {
        s: "loc:@embedding_18/embeddings"
      }
    }
  }
  attr {
    key: "dtype"
    value {
      type: DT_FLOAT
    }
  }
  attr {
    key: "value"
    value {
      tensor {
        dtype: DT_FLOAT
        tensor_shape {
        }
        float_val: -0.05000000074505806
      }
    }
  }
}
node {
  name: "embedding_18/embeddings/Initializer/random_uniform/max"
  op: "Const"
  attr {
    key: "_class"
    value {
      list {
        s: "loc:@embedding_18/embeddings"
      }
    }
  }
  attr {
    key: "dtype"
    value {
      type: DT_FLOAT
    }
  }
  attr {
    key: "value"
    value {
      tensor {
        dtype: DT_FLOAT
        tensor_shape {
        }
        float_val: 0.05000000074505806
      }
    }
  }
}
node {
  name: "embedding_18/embeddings/Initializer/random_uniform/RandomUniform"
  op: "RandomUniform"
  input: "embedding_18/embeddings/Initializer/random_uniform/shape"
  attr {
    key: "T"
    value {
      type: DT_INT32
    }
  }
  attr {
    key: "_class"
    value {
      list {
        s: "loc:@embedding_18/embeddings"
      }
    }
  }
  attr {
    key: "dtype"
    value {
      type: DT_FLOAT
    }
  }
  attr {
    key: "seed"
    value {
      i: 0
    }
  }
  attr {
    key: "seed2"
    value {
      i: 0
    }
  }
}
node {
  name: "embedding_18/embeddings/Initializer/random_uniform/sub"
  op: "Sub"
  input: "embedding_18/embeddings/Initializer/random_uniform/max"
  input: "embedding_18/embeddings/Initializer/random_uniform/min"
  attr {
    key: "T"
    value {
      type: DT_FLOAT
    }
  }
  attr {
    key: "_class"
    value {
      list {
        s: "loc:@embedding_18/embeddings"
      }
    }
  }
}
node {
  name: "embedding_18/embeddings/Initializer/random_uniform/mul"
  op: "Mul"
  input: "embedding_18/embeddings/Initializer/random_uniform/RandomUniform"
  input: "embedding_18/embeddings/Initializer/random_uniform/sub"
  attr {
    key: "T"
    value {
      type: DT_FLOAT
    }
  }
  attr {
    key: "_class"
    value {
      list {
        s: "loc:@embedding_18/embeddings"
      }
    }
  }
}
node {
  name: "embedding_18/embeddings/Initializer/random_uniform"
  op: "Add"
  input: "embedding_18/embeddings/Initializer/random_uniform/mul"
  input: "embedding_18/embeddings/Initializer/random_uniform/min"
  attr {
    key: "T"
    value {
      type: DT_FLOAT
    }
  }
  attr {
    key: "_class"
    value {
      list {
        s: "loc:@embedding_18/embeddings"
      }
    }
  }
}
node {
  name: "embedding_18/embeddings"
  op: "VarHandleOp"
  attr {
    key: "_class"
    value {
      list {
        s: "loc:@embedding_18/embeddings"
      }
    }
  }
    
  attr {
    key: "container"
    value {
      s: ""
    }
  }
  attr {
    key: "dtype"
    value {
      type: DT_FLOAT
    }
  }
  attr {
    key: "shape"
    value {
      shape {
        dim {
          size: 20000
        }
        dim {
          size: 256
        }
      }
    }
  }
  attr {
    key: "shared_name"
    value {
      s: "embedding_18/embeddings"
    }
  }
}
node {
  name: "embedding_18/embeddings/IsInitialized/VarIsInitializedOp"
  op: "VarIsInitializedOp"
  input: "embedding_18/embeddings"
}
node {
  name: "embedding_18/embeddings/Assign"
  op: "AssignVariableOp"
  input: "embedding_18/embeddings"
  input: "embedding_18/embeddings/Initializer/random_uniform"
  attr {
    key: "dtype"
    value {
      type: DT_FLOAT
    }
  }
}
node {
  name: "embedding_18/embeddings/Read/ReadVariableOp"
  op: "ReadVariableOp"
  input: "embedding_18/embeddings"
  attr {
    key: "dtype"
    value {
      type: DT_FLOAT
    }
  }
}
node {
  name: "embedding_18/embedding_lookup"
  op: "ResourceGather"
  input: "embedding_18/embeddings"
  input: "unstack:18"
  attr {
    key: "Tindices"
    value {
      type: DT_INT64
    }
  }
  attr {
    key: "_class"
    value {
      list {
        s: "loc:@embedding_18/embeddings"
      }
    }
  }
  attr {
    key: "batch_dims"
    value {
      i: 0
    }
  }
  attr {
    key: "dtype"
    value {
      type: DT_FLOAT
    }
  }
  attr {
    key: "validate_indices"
    value {
      b: true
    }
  }
}
node {
  name: "embedding_18/embedding_lookup/Identity"
  op: "Identity"
  input: "embedding_18/embedding_lookup"
  attr {
    key: "T"
    value {
      type: DT_FLOAT
    }
  }
  attr {
    key: "_class"
    value {
      list {
        s: "loc:@embedding_18/embeddings"
      }
    }
  }
}
node {
  name: "embedding_18/embedding_lookup/Identity_1"
  op: "Identity"
  input: "embedding_18/embedding_lookup/Identity"
  attr {
    key: "T"
    value {
      type: DT_FLOAT
    }
  }
}
node {
  name: "embedding_19/embeddings/Initializer/random_uniform/shape"
  op: "Const"
  attr {
    key: "_class"
    value {
      list {
        s: "loc:@embedding_19/embeddings"
      }
    }
  }
  attr {
    key: "dtype"
    value {
      type: DT_INT32
    }
  }
  attr {
    key: "value"
    value {
      tensor {
        dtype: DT_INT32
        tensor_shape {
          dim {
            size: 2
          }
        }
        tensor_content: " N\000\000\000\001\000\000"
      }
    }
  }
}
node {
  name: "embedding_19/embeddings/Initializer/random_uniform/min"
  op: "Const"
  attr {
    key: "_class"
    value {
      list {
        s: "loc:@embedding_19/embeddings"
      }
    }
  }
  attr {
    key: "dtype"
    value {
      type: DT_FLOAT
    }
  }
  attr {
    key: "value"
    value {
      tensor {
        dtype: DT_FLOAT
        tensor_shape {
        }
        float_val: -0.05000000074505806
      }
    }
  }
}
node {
  name: "embedding_19/embeddings/Initializer/random_uniform/max"
  op: "Const"
  attr {
    key: "_class"
    value {
      list {
        s: "loc:@embedding_19/embeddings"
      }
    }
  }
  attr {
    key: "dtype"
    value {
      type: DT_FLOAT
    }
  }
  attr {
    key: "value"
    value {
      tensor {
        dtype: DT_FLOAT
        tensor_shape {
        }
        float_val: 0.05000000074505806
      }
    }
  }
}
node {
  name: "embedding_19/embeddings/Initializer/random_uniform/RandomUniform"
  op: "RandomUniform"
  input: "embedding_19/embeddings/Initializer/random_uniform/shape"
  attr {
    key: "T"
    value {
      type: DT_INT32
    }
  }
  attr {
    key: "_class"
    value {
      list {
        s: "loc:@embedding_19/embeddings"
      }
    }
  }
  attr {
    key: "dtype"
    value {
      type: DT_FLOAT
    }
  }
  attr {
    key: "seed"
    value {
      i: 0
    }
  }
  attr {
    key: "seed2"
    value {
      i: 0
    }
  }
}
node {
  name: "embedding_19/embeddings/Initializer/random_uniform/sub"
  op: "Sub"
  input: "embedding_19/embeddings/Initializer/random_uniform/max"
  input: "embedding_19/embeddings/Initializer/random_uniform/min"
  attr {
    key: "T"
    value {
      type: DT_FLOAT
    }
  }
  attr {
    key: "_class"
    value {
      list {
        s: "loc:@embedding_19/embeddings"
      }
    }
  }
}
node {
  name: "embedding_19/embeddings/Initializer/random_uniform/mul"
  op: "Mul"
  input: "embedding_19/embeddings/Initializer/random_uniform/RandomUniform"
  input: "embedding_19/embeddings/Initializer/random_uniform/sub"
  attr {
    key: "T"
    value {
      type: DT_FLOAT
    }
  }
  attr {
    key: "_class"
    value {
      list {
        s: "loc:@embedding_19/embeddings"
      }
    }
  }
}
node {
  name: "embedding_19/embeddings/Initializer/random_uniform"
  op: "Add"
  input: "embedding_19/embeddings/Initializer/random_uniform/mul"
  input: "embedding_19/embeddings/Initializer/random_uniform/min"
  attr {
    key: "T"
    value {
      type: DT_FLOAT
    }
  }
  attr {
    key: "_class"
    value {
      list {
        s: "loc:@embedding_19/embeddings"
      }
    }
  }
}
node {
  name: "embedding_19/embeddings"
  op: "VarHandleOp"
  attr {
    key: "_class"
    value {
      list {
        s: "loc:@embedding_19/embeddings"
      }
    }
  }
    
  attr {
    key: "container"
    value {
      s: ""
    }
  }
  attr {
    key: "dtype"
    value {
      type: DT_FLOAT
    }
  }
  attr {
    key: "shape"
    value {
      shape {
        dim {
          size: 20000
        }
        dim {
          size: 256
        }
      }
    }
  }
  attr {
    key: "shared_name"
    value {
      s: "embedding_19/embeddings"
    }
  }
}
node {
  name: "embedding_19/embeddings/IsInitialized/VarIsInitializedOp"
  op: "VarIsInitializedOp"
  input: "embedding_19/embeddings"
}
node {
  name: "embedding_19/embeddings/Assign"
  op: "AssignVariableOp"
  input: "embedding_19/embeddings"
  input: "embedding_19/embeddings/Initializer/random_uniform"
  attr {
    key: "dtype"
    value {
      type: DT_FLOAT
    }
  }
}
node {
  name: "embedding_19/embeddings/Read/ReadVariableOp"
  op: "ReadVariableOp"
  input: "embedding_19/embeddings"
  attr {
    key: "dtype"
    value {
      type: DT_FLOAT
    }
  }
}
node {
  name: "embedding_19/embedding_lookup"
  op: "ResourceGather"
  input: "embedding_19/embeddings"
  input: "unstack:19"
  attr {
    key: "Tindices"
    value {
      type: DT_INT64
    }
  }
  attr {
    key: "_class"
    value {
      list {
        s: "loc:@embedding_19/embeddings"
      }
    }
  }
  attr {
    key: "batch_dims"
    value {
      i: 0
    }
  }
  attr {
    key: "dtype"
    value {
      type: DT_FLOAT
    }
  }
  attr {
    key: "validate_indices"
    value {
      b: true
    }
  }
}
node {
  name: "embedding_19/embedding_lookup/Identity"
  op: "Identity"
  input: "embedding_19/embedding_lookup"
  attr {
    key: "T"
    value {
      type: DT_FLOAT
    }
  }
  attr {
    key: "_class"
    value {
      list {
        s: "loc:@embedding_19/embeddings"
      }
    }
  }
}
node {
  name: "embedding_19/embedding_lookup/Identity_1"
  op: "Identity"
  input: "embedding_19/embedding_lookup/Identity"
  attr {
    key: "T"
    value {
      type: DT_FLOAT
    }
  }
}
node {
  name: "embedding_20/embeddings/Initializer/random_uniform/shape"
  op: "Const"
  attr {
    key: "_class"
    value {
      list {
        s: "loc:@embedding_20/embeddings"
      }
    }
  }
  attr {
    key: "dtype"
    value {
      type: DT_INT32
    }
  }
  attr {
    key: "value"
    value {
      tensor {
        dtype: DT_INT32
        tensor_shape {
          dim {
            size: 2
          }
        }
        tensor_content: " N\000\000\000\001\000\000"
      }
    }
  }
}
node {
  name: "embedding_20/embeddings/Initializer/random_uniform/min"
  op: "Const"
  attr {
    key: "_class"
    value {
      list {
        s: "loc:@embedding_20/embeddings"
      }
    }
  }
  attr {
    key: "dtype"
    value {
      type: DT_FLOAT
    }
  }
  attr {
    key: "value"
    value {
      tensor {
        dtype: DT_FLOAT
        tensor_shape {
        }
        float_val: -0.05000000074505806
      }
    }
  }
}
node {
  name: "embedding_20/embeddings/Initializer/random_uniform/max"
  op: "Const"
  attr {
    key: "_class"
    value {
      list {
        s: "loc:@embedding_20/embeddings"
      }
    }
  }
  attr {
    key: "dtype"
    value {
      type: DT_FLOAT
    }
  }
  attr {
    key: "value"
    value {
      tensor {
        dtype: DT_FLOAT
        tensor_shape {
        }
        float_val: 0.05000000074505806
      }
    }
  }
}
node {
  name: "embedding_20/embeddings/Initializer/random_uniform/RandomUniform"
  op: "RandomUniform"
  input: "embedding_20/embeddings/Initializer/random_uniform/shape"
  attr {
    key: "T"
    value {
      type: DT_INT32
    }
  }
  attr {
    key: "_class"
    value {
      list {
        s: "loc:@embedding_20/embeddings"
      }
    }
  }
  attr {
    key: "dtype"
    value {
      type: DT_FLOAT
    }
  }
  attr {
    key: "seed"
    value {
      i: 0
    }
  }
  attr {
    key: "seed2"
    value {
      i: 0
    }
  }
}
node {
  name: "embedding_20/embeddings/Initializer/random_uniform/sub"
  op: "Sub"
  input: "embedding_20/embeddings/Initializer/random_uniform/max"
  input: "embedding_20/embeddings/Initializer/random_uniform/min"
  attr {
    key: "T"
    value {
      type: DT_FLOAT
    }
  }
  attr {
    key: "_class"
    value {
      list {
        s: "loc:@embedding_20/embeddings"
      }
    }
  }
}
node {
  name: "embedding_20/embeddings/Initializer/random_uniform/mul"
  op: "Mul"
  input: "embedding_20/embeddings/Initializer/random_uniform/RandomUniform"
  input: "embedding_20/embeddings/Initializer/random_uniform/sub"
  attr {
    key: "T"
    value {
      type: DT_FLOAT
    }
  }
  attr {
    key: "_class"
    value {
      list {
        s: "loc:@embedding_20/embeddings"
      }
    }
  }
}
node {
  name: "embedding_20/embeddings/Initializer/random_uniform"
  op: "Add"
  input: "embedding_20/embeddings/Initializer/random_uniform/mul"
  input: "embedding_20/embeddings/Initializer/random_uniform/min"
  attr {
    key: "T"
    value {
      type: DT_FLOAT
    }
  }
  attr {
    key: "_class"
    value {
      list {
        s: "loc:@embedding_20/embeddings"
      }
    }
  }
}
node {
  name: "embedding_20/embeddings"
  op: "VarHandleOp"
  attr {
    key: "_class"
    value {
      list {
        s: "loc:@embedding_20/embeddings"
      }
    }
  }
    
  attr {
    key: "container"
    value {
      s: ""
    }
  }
  attr {
    key: "dtype"
    value {
      type: DT_FLOAT
    }
  }
  attr {
    key: "shape"
    value {
      shape {
        dim {
          size: 20000
        }
        dim {
          size: 256
        }
      }
    }
  }
  attr {
    key: "shared_name"
    value {
      s: "embedding_20/embeddings"
    }
  }
}
node {
  name: "embedding_20/embeddings/IsInitialized/VarIsInitializedOp"
  op: "VarIsInitializedOp"
  input: "embedding_20/embeddings"
}
node {
  name: "embedding_20/embeddings/Assign"
  op: "AssignVariableOp"
  input: "embedding_20/embeddings"
  input: "embedding_20/embeddings/Initializer/random_uniform"
  attr {
    key: "dtype"
    value {
      type: DT_FLOAT
    }
  }
}
node {
  name: "embedding_20/embeddings/Read/ReadVariableOp"
  op: "ReadVariableOp"
  input: "embedding_20/embeddings"
  attr {
    key: "dtype"
    value {
      type: DT_FLOAT
    }
  }
}
node {
  name: "embedding_20/embedding_lookup"
  op: "ResourceGather"
  input: "embedding_20/embeddings"
  input: "unstack:20"
  attr {
    key: "Tindices"
    value {
      type: DT_INT64
    }
  }
  attr {
    key: "_class"
    value {
      list {
        s: "loc:@embedding_20/embeddings"
      }
    }
  }
  attr {
    key: "batch_dims"
    value {
      i: 0
    }
  }
  attr {
    key: "dtype"
    value {
      type: DT_FLOAT
    }
  }
  attr {
    key: "validate_indices"
    value {
      b: true
    }
  }
}
node {
  name: "embedding_20/embedding_lookup/Identity"
  op: "Identity"
  input: "embedding_20/embedding_lookup"
  attr {
    key: "T"
    value {
      type: DT_FLOAT
    }
  }
  attr {
    key: "_class"
    value {
      list {
        s: "loc:@embedding_20/embeddings"
      }
    }
  }
}
node {
  name: "embedding_20/embedding_lookup/Identity_1"
  op: "Identity"
  input: "embedding_20/embedding_lookup/Identity"
  attr {
    key: "T"
    value {
      type: DT_FLOAT
    }
  }
}
node {
  name: "embedding_21/embeddings/Initializer/random_uniform/shape"
  op: "Const"
  attr {
    key: "_class"
    value {
      list {
        s: "loc:@embedding_21/embeddings"
      }
    }
  }
  attr {
    key: "dtype"
    value {
      type: DT_INT32
    }
  }
  attr {
    key: "value"
    value {
      tensor {
        dtype: DT_INT32
        tensor_shape {
          dim {
            size: 2
          }
        }
        tensor_content: " N\000\000\000\001\000\000"
      }
    }
  }
}
node {
  name: "embedding_21/embeddings/Initializer/random_uniform/min"
  op: "Const"
  attr {
    key: "_class"
    value {
      list {
        s: "loc:@embedding_21/embeddings"
      }
    }
  }
  attr {
    key: "dtype"
    value {
      type: DT_FLOAT
    }
  }
  attr {
    key: "value"
    value {
      tensor {
        dtype: DT_FLOAT
        tensor_shape {
        }
        float_val: -0.05000000074505806
      }
    }
  }
}
node {
  name: "embedding_21/embeddings/Initializer/random_uniform/max"
  op: "Const"
  attr {
    key: "_class"
    value {
      list {
        s: "loc:@embedding_21/embeddings"
      }
    }
  }
  attr {
    key: "dtype"
    value {
      type: DT_FLOAT
    }
  }
  attr {
    key: "value"
    value {
      tensor {
        dtype: DT_FLOAT
        tensor_shape {
        }
        float_val: 0.05000000074505806
      }
    }
  }
}
node {
  name: "embedding_21/embeddings/Initializer/random_uniform/RandomUniform"
  op: "RandomUniform"
  input: "embedding_21/embeddings/Initializer/random_uniform/shape"
  attr {
    key: "T"
    value {
      type: DT_INT32
    }
  }
  attr {
    key: "_class"
    value {
      list {
        s: "loc:@embedding_21/embeddings"
      }
    }
  }
  attr {
    key: "dtype"
    value {
      type: DT_FLOAT
    }
  }
  attr {
    key: "seed"
    value {
      i: 0
    }
  }
  attr {
    key: "seed2"
    value {
      i: 0
    }
  }
}
node {
  name: "embedding_21/embeddings/Initializer/random_uniform/sub"
  op: "Sub"
  input: "embedding_21/embeddings/Initializer/random_uniform/max"
  input: "embedding_21/embeddings/Initializer/random_uniform/min"
  attr {
    key: "T"
    value {
      type: DT_FLOAT
    }
  }
  attr {
    key: "_class"
    value {
      list {
        s: "loc:@embedding_21/embeddings"
      }
    }
  }
}
node {
  name: "embedding_21/embeddings/Initializer/random_uniform/mul"
  op: "Mul"
  input: "embedding_21/embeddings/Initializer/random_uniform/RandomUniform"
  input: "embedding_21/embeddings/Initializer/random_uniform/sub"
  attr {
    key: "T"
    value {
      type: DT_FLOAT
    }
  }
  attr {
    key: "_class"
    value {
      list {
        s: "loc:@embedding_21/embeddings"
      }
    }
  }
}
node {
  name: "embedding_21/embeddings/Initializer/random_uniform"
  op: "Add"
  input: "embedding_21/embeddings/Initializer/random_uniform/mul"
  input: "embedding_21/embeddings/Initializer/random_uniform/min"
  attr {
    key: "T"
    value {
      type: DT_FLOAT
    }
  }
  attr {
    key: "_class"
    value {
      list {
        s: "loc:@embedding_21/embeddings"
      }
    }
  }
}
node {
  name: "embedding_21/embeddings"
  op: "VarHandleOp"
  attr {
    key: "_class"
    value {
      list {
        s: "loc:@embedding_21/embeddings"
      }
    }
  }
    
  attr {
    key: "container"
    value {
      s: ""
    }
  }
  attr {
    key: "dtype"
    value {
      type: DT_FLOAT
    }
  }
  attr {
    key: "shape"
    value {
      shape {
        dim {
          size: 20000
        }
        dim {
          size: 256
        }
      }
    }
  }
  attr {
    key: "shared_name"
    value {
      s: "embedding_21/embeddings"
    }
  }
}
node {
  name: "embedding_21/embeddings/IsInitialized/VarIsInitializedOp"
  op: "VarIsInitializedOp"
  input: "embedding_21/embeddings"
}
node {
  name: "embedding_21/embeddings/Assign"
  op: "AssignVariableOp"
  input: "embedding_21/embeddings"
  input: "embedding_21/embeddings/Initializer/random_uniform"
  attr {
    key: "dtype"
    value {
      type: DT_FLOAT
    }
  }
}
node {
  name: "embedding_21/embeddings/Read/ReadVariableOp"
  op: "ReadVariableOp"
  input: "embedding_21/embeddings"
  attr {
    key: "dtype"
    value {
      type: DT_FLOAT
    }
  }
}
node {
  name: "embedding_21/embedding_lookup"
  op: "ResourceGather"
  input: "embedding_21/embeddings"
  input: "unstack:21"
  attr {
    key: "Tindices"
    value {
      type: DT_INT64
    }
  }
  attr {
    key: "_class"
    value {
      list {
        s: "loc:@embedding_21/embeddings"
      }
    }
  }
  attr {
    key: "batch_dims"
    value {
      i: 0
    }
  }
  attr {
    key: "dtype"
    value {
      type: DT_FLOAT
    }
  }
  attr {
    key: "validate_indices"
    value {
      b: true
    }
  }
}
node {
  name: "embedding_21/embedding_lookup/Identity"
  op: "Identity"
  input: "embedding_21/embedding_lookup"
  attr {
    key: "T"
    value {
      type: DT_FLOAT
    }
  }
  attr {
    key: "_class"
    value {
      list {
        s: "loc:@embedding_21/embeddings"
      }
    }
  }
}
node {
  name: "embedding_21/embedding_lookup/Identity_1"
  op: "Identity"
  input: "embedding_21/embedding_lookup/Identity"
  attr {
    key: "T"
    value {
      type: DT_FLOAT
    }
  }
}
node {
  name: "embedding_22/embeddings/Initializer/random_uniform/shape"
  op: "Const"
  attr {
    key: "_class"
    value {
      list {
        s: "loc:@embedding_22/embeddings"
      }
    }
  }
  attr {
    key: "dtype"
    value {
      type: DT_INT32
    }
  }
  attr {
    key: "value"
    value {
      tensor {
        dtype: DT_INT32
        tensor_shape {
          dim {
            size: 2
          }
        }
        tensor_content: " N\000\000\000\001\000\000"
      }
    }
  }
}
node {
  name: "embedding_22/embeddings/Initializer/random_uniform/min"
  op: "Const"
  attr {
    key: "_class"
    value {
      list {
        s: "loc:@embedding_22/embeddings"
      }
    }
  }
  attr {
    key: "dtype"
    value {
      type: DT_FLOAT
    }
  }
  attr {
    key: "value"
    value {
      tensor {
        dtype: DT_FLOAT
        tensor_shape {
        }
        float_val: -0.05000000074505806
      }
    }
  }
}
node {
  name: "embedding_22/embeddings/Initializer/random_uniform/max"
  op: "Const"
  attr {
    key: "_class"
    value {
      list {
        s: "loc:@embedding_22/embeddings"
      }
    }
  }
  attr {
    key: "dtype"
    value {
      type: DT_FLOAT
    }
  }
  attr {
    key: "value"
    value {
      tensor {
        dtype: DT_FLOAT
        tensor_shape {
        }
        float_val: 0.05000000074505806
      }
    }
  }
}
node {
  name: "embedding_22/embeddings/Initializer/random_uniform/RandomUniform"
  op: "RandomUniform"
  input: "embedding_22/embeddings/Initializer/random_uniform/shape"
  attr {
    key: "T"
    value {
      type: DT_INT32
    }
  }
  attr {
    key: "_class"
    value {
      list {
        s: "loc:@embedding_22/embeddings"
      }
    }
  }
  attr {
    key: "dtype"
    value {
      type: DT_FLOAT
    }
  }
  attr {
    key: "seed"
    value {
      i: 0
    }
  }
  attr {
    key: "seed2"
    value {
      i: 0
    }
  }
}
node {
  name: "embedding_22/embeddings/Initializer/random_uniform/sub"
  op: "Sub"
  input: "embedding_22/embeddings/Initializer/random_uniform/max"
  input: "embedding_22/embeddings/Initializer/random_uniform/min"
  attr {
    key: "T"
    value {
      type: DT_FLOAT
    }
  }
  attr {
    key: "_class"
    value {
      list {
        s: "loc:@embedding_22/embeddings"
      }
    }
  }
}
node {
  name: "embedding_22/embeddings/Initializer/random_uniform/mul"
  op: "Mul"
  input: "embedding_22/embeddings/Initializer/random_uniform/RandomUniform"
  input: "embedding_22/embeddings/Initializer/random_uniform/sub"
  attr {
    key: "T"
    value {
      type: DT_FLOAT
    }
  }
  attr {
    key: "_class"
    value {
      list {
        s: "loc:@embedding_22/embeddings"
      }
    }
  }
}
node {
  name: "embedding_22/embeddings/Initializer/random_uniform"
  op: "Add"
  input: "embedding_22/embeddings/Initializer/random_uniform/mul"
  input: "embedding_22/embeddings/Initializer/random_uniform/min"
  attr {
    key: "T"
    value {
      type: DT_FLOAT
    }
  }
  attr {
    key: "_class"
    value {
      list {
        s: "loc:@embedding_22/embeddings"
      }
    }
  }
}
node {
  name: "embedding_22/embeddings"
  op: "VarHandleOp"
  attr {
    key: "_class"
    value {
      list {
        s: "loc:@embedding_22/embeddings"
      }
    }
  }
    
  attr {
    key: "container"
    value {
      s: ""
    }
  }
  attr {
    key: "dtype"
    value {
      type: DT_FLOAT
    }
  }
  attr {
    key: "shape"
    value {
      shape {
        dim {
          size: 20000
        }
        dim {
          size: 256
        }
      }
    }
  }
  attr {
    key: "shared_name"
    value {
      s: "embedding_22/embeddings"
    }
  }
}
node {
  name: "embedding_22/embeddings/IsInitialized/VarIsInitializedOp"
  op: "VarIsInitializedOp"
  input: "embedding_22/embeddings"
}
node {
  name: "embedding_22/embeddings/Assign"
  op: "AssignVariableOp"
  input: "embedding_22/embeddings"
  input: "embedding_22/embeddings/Initializer/random_uniform"
  attr {
    key: "dtype"
    value {
      type: DT_FLOAT
    }
  }
}
node {
  name: "embedding_22/embeddings/Read/ReadVariableOp"
  op: "ReadVariableOp"
  input: "embedding_22/embeddings"
  attr {
    key: "dtype"
    value {
      type: DT_FLOAT
    }
  }
}
node {
  name: "embedding_22/embedding_lookup"
  op: "ResourceGather"
  input: "embedding_22/embeddings"
  input: "unstack:22"
  attr {
    key: "Tindices"
    value {
      type: DT_INT64
    }
  }
  attr {
    key: "_class"
    value {
      list {
        s: "loc:@embedding_22/embeddings"
      }
    }
  }
  attr {
    key: "batch_dims"
    value {
      i: 0
    }
  }
  attr {
    key: "dtype"
    value {
      type: DT_FLOAT
    }
  }
  attr {
    key: "validate_indices"
    value {
      b: true
    }
  }
}
node {
  name: "embedding_22/embedding_lookup/Identity"
  op: "Identity"
  input: "embedding_22/embedding_lookup"
  attr {
    key: "T"
    value {
      type: DT_FLOAT
    }
  }
  attr {
    key: "_class"
    value {
      list {
        s: "loc:@embedding_22/embeddings"
      }
    }
  }
}
node {
  name: "embedding_22/embedding_lookup/Identity_1"
  op: "Identity"
  input: "embedding_22/embedding_lookup/Identity"
  attr {
    key: "T"
    value {
      type: DT_FLOAT
    }
  }
}
node {
  name: "embedding_23/embeddings/Initializer/random_uniform/shape"
  op: "Const"
  attr {
    key: "_class"
    value {
      list {
        s: "loc:@embedding_23/embeddings"
      }
    }
  }
  attr {
    key: "dtype"
    value {
      type: DT_INT32
    }
  }
  attr {
    key: "value"
    value {
      tensor {
        dtype: DT_INT32
        tensor_shape {
          dim {
            size: 2
          }
        }
        tensor_content: " N\000\000\000\001\000\000"
      }
    }
  }
}
node {
  name: "embedding_23/embeddings/Initializer/random_uniform/min"
  op: "Const"
  attr {
    key: "_class"
    value {
      list {
        s: "loc:@embedding_23/embeddings"
      }
    }
  }
  attr {
    key: "dtype"
    value {
      type: DT_FLOAT
    }
  }
  attr {
    key: "value"
    value {
      tensor {
        dtype: DT_FLOAT
        tensor_shape {
        }
        float_val: -0.05000000074505806
      }
    }
  }
}
node {
  name: "embedding_23/embeddings/Initializer/random_uniform/max"
  op: "Const"
  attr {
    key: "_class"
    value {
      list {
        s: "loc:@embedding_23/embeddings"
      }
    }
  }
  attr {
    key: "dtype"
    value {
      type: DT_FLOAT
    }
  }
  attr {
    key: "value"
    value {
      tensor {
        dtype: DT_FLOAT
        tensor_shape {
        }
        float_val: 0.05000000074505806
      }
    }
  }
}
node {
  name: "embedding_23/embeddings/Initializer/random_uniform/RandomUniform"
  op: "RandomUniform"
  input: "embedding_23/embeddings/Initializer/random_uniform/shape"
  attr {
    key: "T"
    value {
      type: DT_INT32
    }
  }
  attr {
    key: "_class"
    value {
      list {
        s: "loc:@embedding_23/embeddings"
      }
    }
  }
  attr {
    key: "dtype"
    value {
      type: DT_FLOAT
    }
  }
  attr {
    key: "seed"
    value {
      i: 0
    }
  }
  attr {
    key: "seed2"
    value {
      i: 0
    }
  }
}
node {
  name: "embedding_23/embeddings/Initializer/random_uniform/sub"
  op: "Sub"
  input: "embedding_23/embeddings/Initializer/random_uniform/max"
  input: "embedding_23/embeddings/Initializer/random_uniform/min"
  attr {
    key: "T"
    value {
      type: DT_FLOAT
    }
  }
  attr {
    key: "_class"
    value {
      list {
        s: "loc:@embedding_23/embeddings"
      }
    }
  }
}
node {
  name: "embedding_23/embeddings/Initializer/random_uniform/mul"
  op: "Mul"
  input: "embedding_23/embeddings/Initializer/random_uniform/RandomUniform"
  input: "embedding_23/embeddings/Initializer/random_uniform/sub"
  attr {
    key: "T"
    value {
      type: DT_FLOAT
    }
  }
  attr {
    key: "_class"
    value {
      list {
        s: "loc:@embedding_23/embeddings"
      }
    }
  }
}
node {
  name: "embedding_23/embeddings/Initializer/random_uniform"
  op: "Add"
  input: "embedding_23/embeddings/Initializer/random_uniform/mul"
  input: "embedding_23/embeddings/Initializer/random_uniform/min"
  attr {
    key: "T"
    value {
      type: DT_FLOAT
    }
  }
  attr {
    key: "_class"
    value {
      list {
        s: "loc:@embedding_23/embeddings"
      }
    }
  }
}
node {
  name: "embedding_23/embeddings"
  op: "VarHandleOp"
  attr {
    key: "_class"
    value {
      list {
        s: "loc:@embedding_23/embeddings"
      }
    }
  }
    
  attr {
    key: "container"
    value {
      s: ""
    }
  }
  attr {
    key: "dtype"
    value {
      type: DT_FLOAT
    }
  }
  attr {
    key: "shape"
    value {
      shape {
        dim {
          size: 20000
        }
        dim {
          size: 256
        }
      }
    }
  }
  attr {
    key: "shared_name"
    value {
      s: "embedding_23/embeddings"
    }
  }
}
node {
  name: "embedding_23/embeddings/IsInitialized/VarIsInitializedOp"
  op: "VarIsInitializedOp"
  input: "embedding_23/embeddings"
}
node {
  name: "embedding_23/embeddings/Assign"
  op: "AssignVariableOp"
  input: "embedding_23/embeddings"
  input: "embedding_23/embeddings/Initializer/random_uniform"
  attr {
    key: "dtype"
    value {
      type: DT_FLOAT
    }
  }
}
node {
  name: "embedding_23/embeddings/Read/ReadVariableOp"
  op: "ReadVariableOp"
  input: "embedding_23/embeddings"
  attr {
    key: "dtype"
    value {
      type: DT_FLOAT
    }
  }
}
node {
  name: "embedding_23/embedding_lookup"
  op: "ResourceGather"
  input: "embedding_23/embeddings"
  input: "unstack:23"
  attr {
    key: "Tindices"
    value {
      type: DT_INT64
    }
  }
  attr {
    key: "_class"
    value {
      list {
        s: "loc:@embedding_23/embeddings"
      }
    }
  }
  attr {
    key: "batch_dims"
    value {
      i: 0
    }
  }
  attr {
    key: "dtype"
    value {
      type: DT_FLOAT
    }
  }
  attr {
    key: "validate_indices"
    value {
      b: true
    }
  }
}
node {
  name: "embedding_23/embedding_lookup/Identity"
  op: "Identity"
  input: "embedding_23/embedding_lookup"
  attr {
    key: "T"
    value {
      type: DT_FLOAT
    }
  }
  attr {
    key: "_class"
    value {
      list {
        s: "loc:@embedding_23/embeddings"
      }
    }
  }
}
node {
  name: "embedding_23/embedding_lookup/Identity_1"
  op: "Identity"
  input: "embedding_23/embedding_lookup/Identity"
  attr {
    key: "T"
    value {
      type: DT_FLOAT
    }
  }
}
node {
  name: "embedding_24/embeddings/Initializer/random_uniform/shape"
  op: "Const"
  attr {
    key: "_class"
    value {
      list {
        s: "loc:@embedding_24/embeddings"
      }
    }
  }
  attr {
    key: "dtype"
    value {
      type: DT_INT32
    }
  }
  attr {
    key: "value"
    value {
      tensor {
        dtype: DT_INT32
        tensor_shape {
          dim {
            size: 2
          }
        }
        tensor_content: " N\000\000\000\001\000\000"
      }
    }
  }
}
node {
  name: "embedding_24/embeddings/Initializer/random_uniform/min"
  op: "Const"
  attr {
    key: "_class"
    value {
      list {
        s: "loc:@embedding_24/embeddings"
      }
    }
  }
  attr {
    key: "dtype"
    value {
      type: DT_FLOAT
    }
  }
  attr {
    key: "value"
    value {
      tensor {
        dtype: DT_FLOAT
        tensor_shape {
        }
        float_val: -0.05000000074505806
      }
    }
  }
}
node {
  name: "embedding_24/embeddings/Initializer/random_uniform/max"
  op: "Const"
  attr {
    key: "_class"
    value {
      list {
        s: "loc:@embedding_24/embeddings"
      }
    }
  }
  attr {
    key: "dtype"
    value {
      type: DT_FLOAT
    }
  }
  attr {
    key: "value"
    value {
      tensor {
        dtype: DT_FLOAT
        tensor_shape {
        }
        float_val: 0.05000000074505806
      }
    }
  }
}
node {
  name: "embedding_24/embeddings/Initializer/random_uniform/RandomUniform"
  op: "RandomUniform"
  input: "embedding_24/embeddings/Initializer/random_uniform/shape"
  attr {
    key: "T"
    value {
      type: DT_INT32
    }
  }
  attr {
    key: "_class"
    value {
      list {
        s: "loc:@embedding_24/embeddings"
      }
    }
  }
  attr {
    key: "dtype"
    value {
      type: DT_FLOAT
    }
  }
  attr {
    key: "seed"
    value {
      i: 0
    }
  }
  attr {
    key: "seed2"
    value {
      i: 0
    }
  }
}
node {
  name: "embedding_24/embeddings/Initializer/random_uniform/sub"
  op: "Sub"
  input: "embedding_24/embeddings/Initializer/random_uniform/max"
  input: "embedding_24/embeddings/Initializer/random_uniform/min"
  attr {
    key: "T"
    value {
      type: DT_FLOAT
    }
  }
  attr {
    key: "_class"
    value {
      list {
        s: "loc:@embedding_24/embeddings"
      }
    }
  }
}
node {
  name: "embedding_24/embeddings/Initializer/random_uniform/mul"
  op: "Mul"
  input: "embedding_24/embeddings/Initializer/random_uniform/RandomUniform"
  input: "embedding_24/embeddings/Initializer/random_uniform/sub"
  attr {
    key: "T"
    value {
      type: DT_FLOAT
    }
  }
  attr {
    key: "_class"
    value {
      list {
        s: "loc:@embedding_24/embeddings"
      }
    }
  }
}
node {
  name: "embedding_24/embeddings/Initializer/random_uniform"
  op: "Add"
  input: "embedding_24/embeddings/Initializer/random_uniform/mul"
  input: "embedding_24/embeddings/Initializer/random_uniform/min"
  attr {
    key: "T"
    value {
      type: DT_FLOAT
    }
  }
  attr {
    key: "_class"
    value {
      list {
        s: "loc:@embedding_24/embeddings"
      }
    }
  }
}
node {
  name: "embedding_24/embeddings"
  op: "VarHandleOp"
  attr {
    key: "_class"
    value {
      list {
        s: "loc:@embedding_24/embeddings"
      }
    }
  }
    
  attr {
    key: "container"
    value {
      s: ""
    }
  }
  attr {
    key: "dtype"
    value {
      type: DT_FLOAT
    }
  }
  attr {
    key: "shape"
    value {
      shape {
        dim {
          size: 20000
        }
        dim {
          size: 256
        }
      }
    }
  }
  attr {
    key: "shared_name"
    value {
      s: "embedding_24/embeddings"
    }
  }
}
node {
  name: "embedding_24/embeddings/IsInitialized/VarIsInitializedOp"
  op: "VarIsInitializedOp"
  input: "embedding_24/embeddings"
}
node {
  name: "embedding_24/embeddings/Assign"
  op: "AssignVariableOp"
  input: "embedding_24/embeddings"
  input: "embedding_24/embeddings/Initializer/random_uniform"
  attr {
    key: "dtype"
    value {
      type: DT_FLOAT
    }
  }
}
node {
  name: "embedding_24/embeddings/Read/ReadVariableOp"
  op: "ReadVariableOp"
  input: "embedding_24/embeddings"
  attr {
    key: "dtype"
    value {
      type: DT_FLOAT
    }
  }
}
node {
  name: "embedding_24/embedding_lookup"
  op: "ResourceGather"
  input: "embedding_24/embeddings"
  input: "unstack:24"
  attr {
    key: "Tindices"
    value {
      type: DT_INT64
    }
  }
  attr {
    key: "_class"
    value {
      list {
        s: "loc:@embedding_24/embeddings"
      }
    }
  }
  attr {
    key: "batch_dims"
    value {
      i: 0
    }
  }
  attr {
    key: "dtype"
    value {
      type: DT_FLOAT
    }
  }
  attr {
    key: "validate_indices"
    value {
      b: true
    }
  }
}
node {
  name: "embedding_24/embedding_lookup/Identity"
  op: "Identity"
  input: "embedding_24/embedding_lookup"
  attr {
    key: "T"
    value {
      type: DT_FLOAT
    }
  }
  attr {
    key: "_class"
    value {
      list {
        s: "loc:@embedding_24/embeddings"
      }
    }
  }
}
node {
  name: "embedding_24/embedding_lookup/Identity_1"
  op: "Identity"
  input: "embedding_24/embedding_lookup/Identity"
  attr {
    key: "T"
    value {
      type: DT_FLOAT
    }
  }
}
node {
  name: "embedding_25/embeddings/Initializer/random_uniform/shape"
  op: "Const"
  attr {
    key: "_class"
    value {
      list {
        s: "loc:@embedding_25/embeddings"
      }
    }
  }
  attr {
    key: "dtype"
    value {
      type: DT_INT32
    }
  }
  attr {
    key: "value"
    value {
      tensor {
        dtype: DT_INT32
        tensor_shape {
          dim {
            size: 2
          }
        }
        tensor_content: " N\000\000\000\001\000\000"
      }
    }
  }
}
node {
  name: "embedding_25/embeddings/Initializer/random_uniform/min"
  op: "Const"
  attr {
    key: "_class"
    value {
      list {
        s: "loc:@embedding_25/embeddings"
      }
    }
  }
  attr {
    key: "dtype"
    value {
      type: DT_FLOAT
    }
  }
  attr {
    key: "value"
    value {
      tensor {
        dtype: DT_FLOAT
        tensor_shape {
        }
        float_val: -0.05000000074505806
      }
    }
  }
}
node {
  name: "embedding_25/embeddings/Initializer/random_uniform/max"
  op: "Const"
  attr {
    key: "_class"
    value {
      list {
        s: "loc:@embedding_25/embeddings"
      }
    }
  }
  attr {
    key: "dtype"
    value {
      type: DT_FLOAT
    }
  }
  attr {
    key: "value"
    value {
      tensor {
        dtype: DT_FLOAT
        tensor_shape {
        }
        float_val: 0.05000000074505806
      }
    }
  }
}
node {
  name: "embedding_25/embeddings/Initializer/random_uniform/RandomUniform"
  op: "RandomUniform"
  input: "embedding_25/embeddings/Initializer/random_uniform/shape"
  attr {
    key: "T"
    value {
      type: DT_INT32
    }
  }
  attr {
    key: "_class"
    value {
      list {
        s: "loc:@embedding_25/embeddings"
      }
    }
  }
  attr {
    key: "dtype"
    value {
      type: DT_FLOAT
    }
  }
  attr {
    key: "seed"
    value {
      i: 0
    }
  }
  attr {
    key: "seed2"
    value {
      i: 0
    }
  }
}
node {
  name: "embedding_25/embeddings/Initializer/random_uniform/sub"
  op: "Sub"
  input: "embedding_25/embeddings/Initializer/random_uniform/max"
  input: "embedding_25/embeddings/Initializer/random_uniform/min"
  attr {
    key: "T"
    value {
      type: DT_FLOAT
    }
  }
  attr {
    key: "_class"
    value {
      list {
        s: "loc:@embedding_25/embeddings"
      }
    }
  }
}
node {
  name: "embedding_25/embeddings/Initializer/random_uniform/mul"
  op: "Mul"
  input: "embedding_25/embeddings/Initializer/random_uniform/RandomUniform"
  input: "embedding_25/embeddings/Initializer/random_uniform/sub"
  attr {
    key: "T"
    value {
      type: DT_FLOAT
    }
  }
  attr {
    key: "_class"
    value {
      list {
        s: "loc:@embedding_25/embeddings"
      }
    }
  }
}
node {
  name: "embedding_25/embeddings/Initializer/random_uniform"
  op: "Add"
  input: "embedding_25/embeddings/Initializer/random_uniform/mul"
  input: "embedding_25/embeddings/Initializer/random_uniform/min"
  attr {
    key: "T"
    value {
      type: DT_FLOAT
    }
  }
  attr {
    key: "_class"
    value {
      list {
        s: "loc:@embedding_25/embeddings"
      }
    }
  }
}
node {
  name: "embedding_25/embeddings"
  op: "VarHandleOp"
  attr {
    key: "_class"
    value {
      list {
        s: "loc:@embedding_25/embeddings"
      }
    }
  }
    
  attr {
    key: "container"
    value {
      s: ""
    }
  }
  attr {
    key: "dtype"
    value {
      type: DT_FLOAT
    }
  }
  attr {
    key: "shape"
    value {
      shape {
        dim {
          size: 20000
        }
        dim {
          size: 256
        }
      }
    }
  }
  attr {
    key: "shared_name"
    value {
      s: "embedding_25/embeddings"
    }
  }
}
node {
  name: "embedding_25/embeddings/IsInitialized/VarIsInitializedOp"
  op: "VarIsInitializedOp"
  input: "embedding_25/embeddings"
}
node {
  name: "embedding_25/embeddings/Assign"
  op: "AssignVariableOp"
  input: "embedding_25/embeddings"
  input: "embedding_25/embeddings/Initializer/random_uniform"
  attr {
    key: "dtype"
    value {
      type: DT_FLOAT
    }
  }
}
node {
  name: "embedding_25/embeddings/Read/ReadVariableOp"
  op: "ReadVariableOp"
  input: "embedding_25/embeddings"
  attr {
    key: "dtype"
    value {
      type: DT_FLOAT
    }
  }
}
node {
  name: "embedding_25/embedding_lookup"
  op: "ResourceGather"
  input: "embedding_25/embeddings"
  input: "unstack:25"
  attr {
    key: "Tindices"
    value {
      type: DT_INT64
    }
  }
  attr {
    key: "_class"
    value {
      list {
        s: "loc:@embedding_25/embeddings"
      }
    }
  }
  attr {
    key: "batch_dims"
    value {
      i: 0
    }
  }
  attr {
    key: "dtype"
    value {
      type: DT_FLOAT
    }
  }
  attr {
    key: "validate_indices"
    value {
      b: true
    }
  }
}
node {
  name: "embedding_25/embedding_lookup/Identity"
  op: "Identity"
  input: "embedding_25/embedding_lookup"
  attr {
    key: "T"
    value {
      type: DT_FLOAT
    }
  }
  attr {
    key: "_class"
    value {
      list {
        s: "loc:@embedding_25/embeddings"
      }
    }
  }
}
node {
  name: "embedding_25/embedding_lookup/Identity_1"
  op: "Identity"
  input: "embedding_25/embedding_lookup/Identity"
  attr {
    key: "T"
    value {
      type: DT_FLOAT
    }
  }
}
node {
  name: "sequential/dense/kernel/Initializer/random_uniform/shape"
  op: "Const"
  attr {
    key: "_class"
    value {
      list {
        s: "loc:@sequential/dense/kernel"
      }
    }
  }
  attr {
    key: "dtype"
    value {
      type: DT_INT32
    }
  }
  attr {
    key: "value"
    value {
      tensor {
        dtype: DT_INT32
        tensor_shape {
          dim {
            size: 2
          }
        }
        tensor_content: "\r\000\000\000\000\002\000\000"
      }
    }
  }
}
node {
  name: "sequential/dense/kernel/Initializer/random_uniform/min"
  op: "Const"
  attr {
    key: "_class"
    value {
      list {
        s: "loc:@sequential/dense/kernel"
      }
    }
  }
  attr {
    key: "dtype"
    value {
      type: DT_FLOAT
    }
  }
  attr {
    key: "value"
    value {
      tensor {
        dtype: DT_FLOAT
        tensor_shape {
        }
        float_val: -0.10690449923276901
      }
    }
  }
}
node {
  name: "sequential/dense/kernel/Initializer/random_uniform/max"
  op: "Const"
  attr {
    key: "_class"
    value {
      list {
        s: "loc:@sequential/dense/kernel"
      }
    }
  }
  attr {
    key: "dtype"
    value {
      type: DT_FLOAT
    }
  }
  attr {
    key: "value"
    value {
      tensor {
        dtype: DT_FLOAT
        tensor_shape {
        }
        float_val: 0.10690449923276901
      }
    }
  }
}
node {
  name: "sequential/dense/kernel/Initializer/random_uniform/RandomUniform"
  op: "RandomUniform"
  input: "sequential/dense/kernel/Initializer/random_uniform/shape"
  attr {
    key: "T"
    value {
      type: DT_INT32
    }
  }
  attr {
    key: "_class"
    value {
      list {
        s: "loc:@sequential/dense/kernel"
      }
    }
  }
  attr {
    key: "dtype"
    value {
      type: DT_FLOAT
    }
  }
  attr {
    key: "seed"
    value {
      i: 0
    }
  }
  attr {
    key: "seed2"
    value {
      i: 0
    }
  }
}
node {
  name: "sequential/dense/kernel/Initializer/random_uniform/sub"
  op: "Sub"
  input: "sequential/dense/kernel/Initializer/random_uniform/max"
  input: "sequential/dense/kernel/Initializer/random_uniform/min"
  attr {
    key: "T"
    value {
      type: DT_FLOAT
    }
  }
  attr {
    key: "_class"
    value {
      list {
        s: "loc:@sequential/dense/kernel"
      }
    }
  }
}
node {
  name: "sequential/dense/kernel/Initializer/random_uniform/mul"
  op: "Mul"
  input: "sequential/dense/kernel/Initializer/random_uniform/RandomUniform"
  input: "sequential/dense/kernel/Initializer/random_uniform/sub"
  attr {
    key: "T"
    value {
      type: DT_FLOAT
    }
  }
  attr {
    key: "_class"
    value {
      list {
        s: "loc:@sequential/dense/kernel"
      }
    }
  }
}
node {
  name: "sequential/dense/kernel/Initializer/random_uniform"
  op: "Add"
  input: "sequential/dense/kernel/Initializer/random_uniform/mul"
  input: "sequential/dense/kernel/Initializer/random_uniform/min"
  attr {
    key: "T"
    value {
      type: DT_FLOAT
    }
  }
  attr {
    key: "_class"
    value {
      list {
        s: "loc:@sequential/dense/kernel"
      }
    }
  }
}
node {
  name: "sequential/dense/kernel"
  op: "VarHandleOp"
  attr {
    key: "_class"
    value {
      list {
        s: "loc:@sequential/dense/kernel"
      }
    }
  }
    
  attr {
    key: "container"
    value {
      s: ""
    }
  }
  attr {
    key: "dtype"
    value {
      type: DT_FLOAT
    }
  }
  attr {
    key: "shape"
    value {
      shape {
        dim {
          size: 13
        }
        dim {
          size: 512
        }
      }
    }
  }
  attr {
    key: "shared_name"
    value {
      s: "sequential/dense/kernel"
    }
  }
}
node {
  name: "sequential/dense/kernel/IsInitialized/VarIsInitializedOp"
  op: "VarIsInitializedOp"
  input: "sequential/dense/kernel"
}
node {
  name: "sequential/dense/kernel/Assign"
  op: "AssignVariableOp"
  input: "sequential/dense/kernel"
  input: "sequential/dense/kernel/Initializer/random_uniform"
  attr {
    key: "dtype"
    value {
      type: DT_FLOAT
    }
  }
}
node {
  name: "sequential/dense/kernel/Read/ReadVariableOp"
  op: "ReadVariableOp"
  input: "sequential/dense/kernel"
  attr {
    key: "dtype"
    value {
      type: DT_FLOAT
    }
  }
}
node {
  name: "sequential/dense/bias/Initializer/zeros"
  op: "Const"
  attr {
    key: "_class"
    value {
      list {
        s: "loc:@sequential/dense/bias"
      }
    }
  }
  attr {
    key: "dtype"
    value {
      type: DT_FLOAT
    }
  }
  attr {
    key: "value"
    value {
      tensor {
        dtype: DT_FLOAT
        tensor_shape {
          dim {
            size: 512
          }
        }
        float_val: 0.0
      }
    }
  }
}
node {
  name: "sequential/dense/bias"
  op: "VarHandleOp"
  attr {
    key: "_class"
    value {
      list {
        s: "loc:@sequential/dense/bias"
      }
    }
  }
    
  attr {
    key: "container"
    value {
      s: ""
    }
  }
  attr {
    key: "dtype"
    value {
      type: DT_FLOAT
    }
  }
  attr {
    key: "shape"
    value {
      shape {
        dim {
          size: 512
        }
      }
    }
  }
  attr {
    key: "shared_name"
    value {
      s: "sequential/dense/bias"
    }
  }
}
node {
  name: "sequential/dense/bias/IsInitialized/VarIsInitializedOp"
  op: "VarIsInitializedOp"
  input: "sequential/dense/bias"
}
node {
  name: "sequential/dense/bias/Assign"
  op: "AssignVariableOp"
  input: "sequential/dense/bias"
  input: "sequential/dense/bias/Initializer/zeros"
  attr {
    key: "dtype"
    value {
      type: DT_FLOAT
    }
  }
}
node {
  name: "sequential/dense/bias/Read/ReadVariableOp"
  op: "ReadVariableOp"
  input: "sequential/dense/bias"
  attr {
    key: "dtype"
    value {
      type: DT_FLOAT
    }
  }
}
node {
  name: "sequential/dense/MatMul/ReadVariableOp"
  op: "ReadVariableOp"
  input: "sequential/dense/kernel"
  attr {
    key: "dtype"
    value {
      type: DT_FLOAT
    }
  }
}
node {
  name: "sequential/dense/MatMul"
  op: "MatMul"
  input: "dense_in"
  input: "sequential/dense/MatMul/ReadVariableOp"
  attr {
    key: "T"
    value {
      type: DT_FLOAT
    }
  }
  attr {
    key: "transpose_a"
    value {
      b: false
    }
  }
  attr {
    key: "transpose_b"
    value {
      b: false
    }
  }
}
node {
  name: "sequential/dense/BiasAdd/ReadVariableOp"
  op: "ReadVariableOp"
  input: "sequential/dense/bias"
  attr {
    key: "dtype"
    value {
      type: DT_FLOAT
    }
  }
}
node {
  name: "sequential/dense/BiasAdd"
  op: "BiasAdd"
  input: "sequential/dense/MatMul"
  input: "sequential/dense/BiasAdd/ReadVariableOp"
  attr {
    key: "T"
    value {
      type: DT_FLOAT
    }
  }
  attr {
    key: "data_format"
    value {
      s: "NHWC"
    }
  }
}
node {
  name: "sequential/dense/Relu"
  op: "Relu"
  input: "sequential/dense/BiasAdd"
  attr {
    key: "T"
    value {
      type: DT_FLOAT
    }
  }
}
node {
  name: "sequential/dense_1/kernel/Initializer/random_uniform/shape"
  op: "Const"
  attr {
    key: "_class"
    value {
      list {
        s: "loc:@sequential/dense_1/kernel"
      }
    }
  }
  attr {
    key: "dtype"
    value {
      type: DT_INT32
    }
  }
  attr {
    key: "value"
    value {
      tensor {
        dtype: DT_INT32
        tensor_shape {
          dim {
            size: 2
          }
        }
        tensor_content: "\000\002\000\000\000\001\000\000"
      }
    }
  }
}
node {
  name: "sequential/dense_1/kernel/Initializer/random_uniform/min"
  op: "Const"
  attr {
    key: "_class"
    value {
      list {
        s: "loc:@sequential/dense_1/kernel"
      }
    }
  }
  attr {
    key: "dtype"
    value {
      type: DT_FLOAT
    }
  }
  attr {
    key: "value"
    value {
      tensor {
        dtype: DT_FLOAT
        tensor_shape {
        }
        float_val: -0.0883883461356163
      }
    }
  }
}
node {
  name: "sequential/dense_1/kernel/Initializer/random_uniform/max"
  op: "Const"
  attr {
    key: "_class"
    value {
      list {
        s: "loc:@sequential/dense_1/kernel"
      }
    }
  }
  attr {
    key: "dtype"
    value {
      type: DT_FLOAT
    }
  }
  attr {
    key: "value"
    value {
      tensor {
        dtype: DT_FLOAT
        tensor_shape {
        }
        float_val: 0.0883883461356163
      }
    }
  }
}
node {
  name: "sequential/dense_1/kernel/Initializer/random_uniform/RandomUniform"
  op: "RandomUniform"
  input: "sequential/dense_1/kernel/Initializer/random_uniform/shape"
  attr {
    key: "T"
    value {
      type: DT_INT32
    }
  }
  attr {
    key: "_class"
    value {
      list {
        s: "loc:@sequential/dense_1/kernel"
      }
    }
  }
  attr {
    key: "dtype"
    value {
      type: DT_FLOAT
    }
  }
  attr {
    key: "seed"
    value {
      i: 0
    }
  }
  attr {
    key: "seed2"
    value {
      i: 0
    }
  }
}
node {
  name: "sequential/dense_1/kernel/Initializer/random_uniform/sub"
  op: "Sub"
  input: "sequential/dense_1/kernel/Initializer/random_uniform/max"
  input: "sequential/dense_1/kernel/Initializer/random_uniform/min"
  attr {
    key: "T"
    value {
      type: DT_FLOAT
    }
  }
  attr {
    key: "_class"
    value {
      list {
        s: "loc:@sequential/dense_1/kernel"
      }
    }
  }
}
node {
  name: "sequential/dense_1/kernel/Initializer/random_uniform/mul"
  op: "Mul"
  input: "sequential/dense_1/kernel/Initializer/random_uniform/RandomUniform"
  input: "sequential/dense_1/kernel/Initializer/random_uniform/sub"
  attr {
    key: "T"
    value {
      type: DT_FLOAT
    }
  }
  attr {
    key: "_class"
    value {
      list {
        s: "loc:@sequential/dense_1/kernel"
      }
    }
  }
}
node {
  name: "sequential/dense_1/kernel/Initializer/random_uniform"
  op: "Add"
  input: "sequential/dense_1/kernel/Initializer/random_uniform/mul"
  input: "sequential/dense_1/kernel/Initializer/random_uniform/min"
  attr {
    key: "T"
    value {
      type: DT_FLOAT
    }
  }
  attr {
    key: "_class"
    value {
      list {
        s: "loc:@sequential/dense_1/kernel"
      }
    }
  }
}
node {
  name: "sequential/dense_1/kernel"
  op: "VarHandleOp"
  attr {
    key: "_class"
    value {
      list {
        s: "loc:@sequential/dense_1/kernel"
      }
    }
  }
    
  attr {
    key: "container"
    value {
      s: ""
    }
  }
  attr {
    key: "dtype"
    value {
      type: DT_FLOAT
    }
  }
  attr {
    key: "shape"
    value {
      shape {
        dim {
          size: 512
        }
        dim {
          size: 256
        }
      }
    }
  }
  attr {
    key: "shared_name"
    value {
      s: "sequential/dense_1/kernel"
    }
  }
}
node {
  name: "sequential/dense_1/kernel/IsInitialized/VarIsInitializedOp"
  op: "VarIsInitializedOp"
  input: "sequential/dense_1/kernel"
}
node {
  name: "sequential/dense_1/kernel/Assign"
  op: "AssignVariableOp"
  input: "sequential/dense_1/kernel"
  input: "sequential/dense_1/kernel/Initializer/random_uniform"
  attr {
    key: "dtype"
    value {
      type: DT_FLOAT
    }
  }
}
node {
  name: "sequential/dense_1/kernel/Read/ReadVariableOp"
  op: "ReadVariableOp"
  input: "sequential/dense_1/kernel"
  attr {
    key: "dtype"
    value {
      type: DT_FLOAT
    }
  }
}
node {
  name: "sequential/dense_1/bias/Initializer/zeros"
  op: "Const"
  attr {
    key: "_class"
    value {
      list {
        s: "loc:@sequential/dense_1/bias"
      }
    }
  }
  attr {
    key: "dtype"
    value {
      type: DT_FLOAT
    }
  }
  attr {
    key: "value"
    value {
      tensor {
        dtype: DT_FLOAT
        tensor_shape {
          dim {
            size: 256
          }
        }
        float_val: 0.0
      }
    }
  }
}
node {
  name: "sequential/dense_1/bias"
  op: "VarHandleOp"
  attr {
    key: "_class"
    value {
      list {
        s: "loc:@sequential/dense_1/bias"
      }
    }
  }
    
  attr {
    key: "container"
    value {
      s: ""
    }
  }
  attr {
    key: "dtype"
    value {
      type: DT_FLOAT
    }
  }
  attr {
    key: "shape"
    value {
      shape {
        dim {
          size: 256
        }
      }
    }
  }
  attr {
    key: "shared_name"
    value {
      s: "sequential/dense_1/bias"
    }
  }
}
node {
  name: "sequential/dense_1/bias/IsInitialized/VarIsInitializedOp"
  op: "VarIsInitializedOp"
  input: "sequential/dense_1/bias"
}
node {
  name: "sequential/dense_1/bias/Assign"
  op: "AssignVariableOp"
  input: "sequential/dense_1/bias"
  input: "sequential/dense_1/bias/Initializer/zeros"
  attr {
    key: "dtype"
    value {
      type: DT_FLOAT
    }
  }
}
node {
  name: "sequential/dense_1/bias/Read/ReadVariableOp"
  op: "ReadVariableOp"
  input: "sequential/dense_1/bias"
  attr {
    key: "dtype"
    value {
      type: DT_FLOAT
    }
  }
}
node {
  name: "sequential/dense_1/MatMul/ReadVariableOp"
  op: "ReadVariableOp"
  input: "sequential/dense_1/kernel"
  attr {
    key: "dtype"
    value {
      type: DT_FLOAT
    }
  }
}
node {
  name: "sequential/dense_1/MatMul"
  op: "MatMul"
  input: "sequential/dense/Relu"
  input: "sequential/dense_1/MatMul/ReadVariableOp"
  attr {
    key: "T"
    value {
      type: DT_FLOAT
    }
  }
  attr {
    key: "transpose_a"
    value {
      b: false
    }
  }
  attr {
    key: "transpose_b"
    value {
      b: false
    }
  }
}
node {
  name: "sequential/dense_1/BiasAdd/ReadVariableOp"
  op: "ReadVariableOp"
  input: "sequential/dense_1/bias"
  attr {
    key: "dtype"
    value {
      type: DT_FLOAT
    }
  }
}
node {
  name: "sequential/dense_1/BiasAdd"
  op: "BiasAdd"
  input: "sequential/dense_1/MatMul"
…
  op: "Const"
  attr {
    key: "_class"
    value {
      list {
        s: "loc:@sequential/dense_3/kernel"
      }
    }
  }
  attr {
    key: "dtype"
    value {
      type: DT_FLOAT
    }
  }
  attr {
    key: "value"
    value {
      tensor {
        dtype: DT_FLOAT
        tensor_shape {
        }
        float_val: 0.1369306445121765
      }
    }
  }
}
node {
  name: "sequential/dense_3/kernel/Initializer/random_uniform/RandomUniform"
  op: "RandomUniform"
  input: "sequential/dense_3/kernel/Initializer/random_uniform/shape"
  attr {
    key: "T"
    value {
      type: DT_INT32
    }
  }
  attr {
    key: "_class"
    value {
      list {
        s: "loc:@sequential/dense_3/kernel"
      }
    }
  }
  attr {
    key: "dtype"
    value {
      type: DT_FLOAT
    }
  }
  attr {
    key: "seed"
    value {
      i: 0
    }
  }
  attr {
    key: "seed2"
    value {
      i: 0
    }
  }
}
node {
  name: "sequential/dense_3/kernel/Initializer/random_uniform/sub"
  op: "Sub"
  input: "sequential/dense_3/kernel/Initializer/random_uniform/max"
  input: "sequential/dense_3/kernel/Initializer/random_uniform/min"
  attr {
    key: "T"
    value {
      type: DT_FLOAT
    }
  }
  attr {
    key: "_class"
    value {
      list {
        s: "loc:@sequential/dense_3/kernel"
      }
    }
  }
}
node {
  name: "sequential/dense_3/kernel/Initializer/random_uniform/mul"
  op: "Mul"
  input: "sequential/dense_3/kernel/Initializer/random_uniform/RandomUniform"
  input: "sequential/dense_3/kernel/Initializer/random_uniform/sub"
  attr {
    key: "T"
    value {
      type: DT_FLOAT
    }
  }
  attr {
    key: "_class"
    value {
      list {
        s: "loc:@sequential/dense_3/kernel"
      }
    }
  }
}
node {
  name: "sequential/dense_3/kernel/Initializer/random_uniform"
  op: "Add"
  input: "sequential/dense_3/kernel/Initializer/random_uniform/mul"
  input: "sequential/dense_3/kernel/Initializer/random_uniform/min"
  attr {
    key: "T"
    value {
      type: DT_FLOAT
    }
  }
  attr {
    key: "_class"
    value {
      list {
        s: "loc:@sequential/dense_3/kernel"
      }
    }
  }
}
node {
  name: "sequential/dense_3/kernel"
  op: "VarHandleOp"
  attr {
    key: "_class"
    value {
      list {
        s: "loc:@sequential/dense_3/kernel"
      }
    }
  }
    
  attr {
    key: "container"
    value {
      s: ""
    }
  }
  attr {
    key: "dtype"
    value {
      type: DT_FLOAT
    }
  }
  attr {
    key: "shape"
    value {
      shape {
        dim {
          size: 64
        }
        dim {
          size: 256
        }
      }
    }
  }
  attr {
    key: "shared_name"
    value {
      s: "sequential/dense_3/kernel"
    }
  }
}
node {
  name: "sequential/dense_3/kernel/IsInitialized/VarIsInitializedOp"
  op: "VarIsInitializedOp"
  input: "sequential/dense_3/kernel"
}
node {
  name: "sequential/dense_3/kernel/Assign"
  op: "AssignVariableOp"
  input: "sequential/dense_3/kernel"
  input: "sequential/dense_3/kernel/Initializer/random_uniform"
  attr {
    key: "dtype"
    value {
      type: DT_FLOAT
    }
  }
}
node {
  name: "sequential/dense_3/kernel/Read/ReadVariableOp"
  op: "ReadVariableOp"
  input: "sequential/dense_3/kernel"
  attr {
    key: "dtype"
    value {
      type: DT_FLOAT
    }
  }
}
node {
  name: "sequential/dense_3/bias/Initializer/zeros"
  op: "Const"
  attr {
    key: "_class"
    value {
      list {
        s: "loc:@sequential/dense_3/bias"
      }
    }
  }
  attr {
    key: "dtype"
    value {
      type: DT_FLOAT
    }
  }
  attr {
    key: "value"
    value {
      tensor {
        dtype: DT_FLOAT
        tensor_shape {
          dim {
            size: 256
          }
        }
        float_val: 0.0
      }
    }
  }
}
node {
  name: "sequential/dense_3/bias"
  op: "VarHandleOp"
  attr {
    key: "_class"
    value {
      list {
        s: "loc:@sequential/dense_3/bias"
      }
    }
  }
    
  attr {
    key: "container"
    value {
      s: ""
    }
  }
  attr {
    key: "dtype"
    value {
      type: DT_FLOAT
    }
  }
  attr {
    key: "shape"
    value {
      shape {
        dim {
          size: 256
        }
      }
    }
  }
  attr {
    key: "shared_name"
    value {
      s: "sequential/dense_3/bias"
    }
  }
}
node {
  name: "sequential/dense_3/bias/IsInitialized/VarIsInitializedOp"
  op: "VarIsInitializedOp"
  input: "sequential/dense_3/bias"
}
node {
  name: "sequential/dense_3/bias/Assign"
  op: "AssignVariableOp"
  input: "sequential/dense_3/bias"
  input: "sequential/dense_3/bias/Initializer/zeros"
  attr {
    key: "dtype"
    value {
      type: DT_FLOAT
    }
  }
}
node {
  name: "sequential/dense_3/bias/Read/ReadVariableOp"
  op: "ReadVariableOp"
  input: "sequential/dense_3/bias"
  attr {
    key: "dtype"
    value {
      type: DT_FLOAT
    }
  }
}
node {
  name: "sequential/dense_3/MatMul/ReadVariableOp"
  op: "ReadVariableOp"
  input: "sequential/dense_3/kernel"
  attr {
    key: "dtype"
    value {
      type: DT_FLOAT
    }
  }
}
node {
  name: "sequential/dense_3/MatMul"
  op: "MatMul"
  input: "sequential/dense_2/Relu"
  input: "sequential/dense_3/MatMul/ReadVariableOp"
  attr {
    key: "T"
    value {
      type: DT_FLOAT
    }
  }
  attr {
    key: "transpose_a"
    value {
      b: false
    }
  }
  attr {
    key: "transpose_b"
    value {
      b: false
    }
  }
}
node {
  name: "sequential/dense_3/BiasAdd/ReadVariableOp"
  op: "ReadVariableOp"
  input: "sequential/dense_3/bias"
  attr {
    key: "dtype"
    value {
      type: DT_FLOAT
    }
  }
}
node {
  name: "sequential/dense_3/BiasAdd"
  op: "BiasAdd"
  input: "sequential/dense_3/MatMul"
  input: "sequential/dense_3/BiasAdd/ReadVariableOp"
  attr {
    key: "T"
    value {
      type: DT_FLOAT
    }
  }
  attr {
    key: "data_format"
    value {
      s: "NHWC"
    }
  }
}
node {
  name: "sequential/dense_3/Relu"
  op: "Relu"
  input: "sequential/dense_3/BiasAdd"
  attr {
    key: "T"
    value {
      type: DT_FLOAT
    }
  }
}
node {
  name: "second_order_feature_interaction/Shape"
  op: "Const"
  attr {
    key: "dtype"
    value {
      type: DT_INT32
    }
  }
  attr {
    key: "value"
    value {
      tensor {
        dtype: DT_INT32
        tensor_shape {
          dim {
            size: 2
          }
        }
        tensor_content: "\000\001\000\000\000\001\000\000"
      }
    }
  }
}
node {
  name: "second_order_feature_interaction/strided_slice/stack"
  op: "Const"
  attr {
    key: "dtype"
    value {
      type: DT_INT32
    }
  }
  attr {
    key: "value"
    value {
      tensor {
        dtype: DT_INT32
        tensor_shape {
          dim {
            size: 1
          }
        }
        int_val: 0
      }
    }
  }
}
node {
  name: "second_order_feature_interaction/strided_slice/stack_1"
  op: "Const"
  attr {
    key: "dtype"
    value {
      type: DT_INT32
    }
  }
  attr {
    key: "value"
    value {
      tensor {
        dtype: DT_INT32
        tensor_shape {
          dim {
            size: 1
          }
        }
        int_val: 1
      }
    }
  }
}
node {
  name: "second_order_feature_interaction/strided_slice/stack_2"
  op: "Const"
  attr {
    key: "dtype"
    value {
      type: DT_INT32
    }
  }
  attr {
    key: "value"
    value {
      tensor {
        dtype: DT_INT32
        tensor_shape {
          dim {
            size: 1
          }
        }
        int_val: 1
      }
    }
  }
}
node {
  name: "second_order_feature_interaction/strided_slice"
  op: "StridedSlice"
  input: "second_order_feature_interaction/Shape"
  input: "second_order_feature_interaction/strided_slice/stack"
  input: "second_order_feature_interaction/strided_slice/stack_1"
  input: "second_order_feature_interaction/strided_slice/stack_2"
  attr {
    key: "Index"
    value {
      type: DT_INT32
    }
  }
  attr {
    key: "T"
    value {
      type: DT_INT32
    }
  }
  attr {
    key: "begin_mask"
    value {
      i: 0
    }
  }
  attr {
    key: "ellipsis_mask"
    value {
      i: 0
    }
  }
  attr {
    key: "end_mask"
    value {
      i: 0
    }
  }
  attr {
    key: "new_axis_mask"
    value {
      i: 0
    }
  }
  attr {
    key: "shrink_axis_mask"
    value {
      i: 1
    }
  }
}
node {
  name: "second_order_feature_interaction/stack"
  op: "Pack"
  input: "embedding/embedding_lookup/Identity_1"
  input: "embedding_1/embedding_lookup/Identity_1"
  input: "embedding_2/embedding_lookup/Identity_1"
  input: "embedding_3/embedding_lookup/Identity_1"
  input: "embedding_4/embedding_lookup/Identity_1"
  input: "embedding_5/embedding_lookup/Identity_1"
  input: "embedding_6/embedding_lookup/Identity_1"
  input: "embedding_7/embedding_lookup/Identity_1"
  input: "embedding_8/embedding_lookup/Identity_1"
  input: "embedding_9/embedding_lookup/Identity_1"
  input: "embedding_10/embedding_lookup/Identity_1"
  input: "embedding_11/embedding_lookup/Identity_1"
  input: "embedding_12/embedding_lookup/Identity_1"
  input: "embedding_13/embedding_lookup/Identity_1"
  input: "embedding_14/embedding_lookup/Identity_1"
  input: "embedding_15/embedding_lookup/Identity_1"
  input: "embedding_16/embedding_lookup/Identity_1"
  input: "embedding_17/embedding_lookup/Identity_1"
  input: "embedding_18/embedding_lookup/Identity_1"
  input: "embedding_19/embedding_lookup/Identity_1"
  input: "embedding_20/embedding_lookup/Identity_1"
  input: "embedding_21/embedding_lookup/Identity_1"
  input: "embedding_22/embedding_lookup/Identity_1"
  input: "embedding_23/embedding_lookup/Identity_1"
  input: "embedding_24/embedding_lookup/Identity_1"
  input: "embedding_25/embedding_lookup/Identity_1"
  input: "sequential/dense_3/Relu"
  attr {
    key: "N"
    value {
      i: 27
    }
  }
  attr {
    key: "T"
    value {
      type: DT_FLOAT
    }
  }
  attr {
    key: "axis"
    value {
      i: 1
    }
  }
}
node {
  name: "second_order_feature_interaction/MatMul"
  op: "BatchMatMulV2"
  input: "second_order_feature_interaction/stack"
  input: "second_order_feature_interaction/stack"
  attr {
    key: "T"
    value {
      type: DT_FLOAT
    }
  }
  attr {
    key: "adj_x"
    value {
      b: false
    }
  }
  attr {
    key: "adj_y"
    value {
      b: true
    }
  }
}
node {
  name: "second_order_feature_interaction/ones_like/Shape"
  op: "Const"
  attr {
    key: "dtype"
    value {
      type: DT_INT32
    }
  }
  attr {
    key: "value"
    value {
      tensor {
        dtype: DT_INT32
        tensor_shape {
          dim {
            size: 3
          }
        }
        tensor_content: "\000\001\000\000\033\000\000\000\033\000\000\000"
      }
    }
  }
}
node {
  name: "second_order_feature_interaction/ones_like/Const"
  op: "Const"
  attr {
    key: "dtype"
    value {
      type: DT_FLOAT
    }
  }
  attr {
    key: "value"
    value {
      tensor {
        dtype: DT_FLOAT
        tensor_shape {
        }
        float_val: 1.0
      }
    }
  }
}
node {
  name: "second_order_feature_interaction/ones_like"
  op: "Fill"
  input: "second_order_feature_interaction/ones_like/Shape"
  input: "second_order_feature_interaction/ones_like/Const"
  attr {
    key: "T"
    value {
      type: DT_FLOAT
    }
  }
  attr {
    key: "index_type"
    value {
      type: DT_INT32
    }
  }
}
node {
  name: "second_order_feature_interaction/MatrixBandPart/num_lower"
  op: "Const"
  attr {
    key: "dtype"
    value {
      type: DT_INT32
    }
  }
  attr {
    key: "value"
    value {
      tensor {
        dtype: DT_INT32
        tensor_shape {
        }
        int_val: 0
      }
    }
  }
}
node {
  name: "second_order_feature_interaction/MatrixBandPart/num_upper"
  op: "Const"
  attr {
    key: "dtype"
    value {
      type: DT_INT32
    }
  }
  attr {
    key: "value"
    value {
      tensor {
        dtype: DT_INT32
        tensor_shape {
        }
        int_val: -1
      }
    }
  }
}
node {
  name: "second_order_feature_interaction/MatrixBandPart"
  op: "MatrixBandPart"
  input: "second_order_feature_interaction/ones_like"
  input: "second_order_feature_interaction/MatrixBandPart/num_lower"
  input: "second_order_feature_interaction/MatrixBandPart/num_upper"
  attr {
    key: "T"
    value {
      type: DT_FLOAT
    }
  }
  attr {
    key: "Tindex"
    value {
      type: DT_INT32
    }
  }
}
node {
  name: "second_order_feature_interaction/MatrixBandPart_1/num_lower"
  op: "Const"
  attr {
    key: "dtype"
    value {
      type: DT_INT32
    }
  }
  attr {
    key: "value"
    value {
      tensor {
        dtype: DT_INT32
        tensor_shape {
        }
        int_val: 0
      }
    }
  }
}
node {
  name: "second_order_feature_interaction/MatrixBandPart_1/num_upper"
  op: "Const"
  attr {
    key: "dtype"
    value {
      type: DT_INT32
    }
  }
  attr {
    key: "value"
    value {
      tensor {
        dtype: DT_INT32
        tensor_shape {
        }
        int_val: 0
      }
    }
  }
}
node {
  name: "second_order_feature_interaction/MatrixBandPart_1"
  op: "MatrixBandPart"
  input: "second_order_feature_interaction/ones_like"
  input: "second_order_feature_interaction/MatrixBandPart_1/num_lower"
  input: "second_order_feature_interaction/MatrixBandPart_1/num_upper"
  attr {
    key: "T"
    value {
      type: DT_FLOAT
    }
  }
  attr {
    key: "Tindex"
    value {
      type: DT_INT32
    }
  }
}
node {
  name: "second_order_feature_interaction/sub"
  op: "Sub"
  input: "second_order_feature_interaction/MatrixBandPart"
  input: "second_order_feature_interaction/MatrixBandPart_1"
  attr {
    key: "T"
    value {
      type: DT_FLOAT
    }
  }
}
node {
  name: "second_order_feature_interaction/boolean_mask/Shape"
  op: "Const"
  attr {
    key: "dtype"
    value {
      type: DT_INT32
    }
  }
  attr {
    key: "value"
    value {
      tensor {
        dtype: DT_INT32
        tensor_shape {
          dim {
            size: 3
          }
        }
        tensor_content: "\000\001\000\000\033\000\000\000\033\000\000\000"
      }
    }
  }
}
node {
  name: "second_order_feature_interaction/boolean_mask/strided_slice/stack"
  op: "Const"
  attr {
    key: "dtype"
    value {
      type: DT_INT32
    }
  }
  attr {
    key: "value"
    value {
      tensor {
        dtype: DT_INT32
        tensor_shape {
          dim {
            size: 1
          }
        }
        int_val: 0
      }
    }
  }
}
node {
  name: "second_order_feature_interaction/boolean_mask/strided_slice/stack_1"
  op: "Const"
  attr {
    key: "dtype"
    value {
      type: DT_INT32
    }
  }
  attr {
    key: "value"
    value {
      tensor {
        dtype: DT_INT32
        tensor_shape {
          dim {
            size: 1
          }
        }
        int_val: 3
      }
    }
  }
}
node {
  name: "second_order_feature_interaction/boolean_mask/strided_slice/stack_2"
  op: "Const"
  attr {
    key: "dtype"
    value {
      type: DT_INT32
    }
  }
  attr {
    key: "value"
    value {
      tensor {
        dtype: DT_INT32
        tensor_shape {
          dim {
            size: 1
          }
        }
        int_val: 1
      }
    }
  }
}
node {
  name: "second_order_feature_interaction/boolean_mask/strided_slice"
  op: "StridedSlice"
  input: "second_order_feature_interaction/boolean_mask/Shape"
  input: "second_order_feature_interaction/boolean_mask/strided_slice/stack"
  input: "second_order_feature_interaction/boolean_mask/strided_slice/stack_1"
  input: "second_order_feature_interaction/boolean_mask/strided_slice/stack_2"
  attr {
    key: "Index"
    value {
      type: DT_INT32
    }
  }
  attr {
    key: "T"
    value {
      type: DT_INT32
    }
  }
  attr {
    key: "begin_mask"
    value {
      i: 0
    }
  }
  attr {
    key: "ellipsis_mask"
    value {
      i: 0
    }
  }
  attr {
    key: "end_mask"
    value {
      i: 0
    }
  }
  attr {
    key: "new_axis_mask"
    value {
      i: 0
    }
  }
  attr {
    key: "shrink_axis_mask"
    value {
      i: 0
    }
  }
}
node {
  name: "second_order_feature_interaction/boolean_mask/Prod/reduction_indices"
  op: "Const"
  attr {
    key: "dtype"
    value {
      type: DT_INT32
    }
  }
  attr {
    key: "value"
    value {
      tensor {
        dtype: DT_INT32
        tensor_shape {
          dim {
            size: 1
          }
        }
        int_val: 0
      }
    }
  }
}
node {
  name: "second_order_feature_interaction/boolean_mask/Prod"
  op: "Prod"
  input: "second_order_feature_interaction/boolean_mask/strided_slice"
  input: "second_order_feature_interaction/boolean_mask/Prod/reduction_indices"
  attr {
    key: "T"
    value {
      type: DT_INT32
    }
  }
  attr {
    key: "Tidx"
    value {
      type: DT_INT32
    }
  }
  attr {
    key: "keep_dims"
    value {
      b: false
    }
  }
}
node {
  name: "second_order_feature_interaction/boolean_mask/Shape_1"
  op: "Const"
  attr {
    key: "dtype"
    value {
      type: DT_INT32
    }
  }
  attr {
    key: "value"
    value {
      tensor {
        dtype: DT_INT32
        tensor_shape {
          dim {
            size: 3
          }
        }
        tensor_content: "\000\001\000\000\033\000\000\000\033\000\000\000"
      }
    }
  }
}
node {
  name: "second_order_feature_interaction/boolean_mask/strided_slice_1/stack"
  op: "Const"
  attr {
    key: "dtype"
    value {
      type: DT_INT32
    }
  }
  attr {
    key: "value"
    value {
      tensor {
        dtype: DT_INT32
        tensor_shape {
          dim {
            size: 1
          }
        }
        int_val: 0
      }
    }
  }
}
node {
  name: "second_order_feature_interaction/boolean_mask/strided_slice_1/stack_1"
  op: "Const"
  attr {
    key: "dtype"
    value {
      type: DT_INT32
    }
  }
  attr {
    key: "value"
    value {
      tensor {
        dtype: DT_INT32
        tensor_shape {
          dim {
            size: 1
          }
        }
        int_val: 0
      }
    }
  }
}
node {
  name: "second_order_feature_interaction/boolean_mask/strided_slice_1/stack_2"
  op: "Const"
  attr {
    key: "dtype"
    value {
      type: DT_INT32
    }
  }
  attr {
    key: "value"
    value {
      tensor {
        dtype: DT_INT32
        tensor_shape {
          dim {
            size: 1
          }
        }
        int_val: 1
      }
    }
  }
}
node {
  name: "second_order_feature_interaction/boolean_mask/strided_slice_1"
  op: "StridedSlice"
  input: "second_order_feature_interaction/boolean_mask/Shape_1"
  input: "second_order_feature_interaction/boolean_mask/strided_slice_1/stack"
  input: "second_order_feature_interaction/boolean_mask/strided_slice_1/stack_1"
  input: "second_order_feature_interaction/boolean_mask/strided_slice_1/stack_2"
  attr {
    key: "Index"
    value {
      type: DT_INT32
    }
  }
  attr {
    key: "T"
    value {
      type: DT_INT32
    }
  }
  attr {
    key: "begin_mask"
    value {
      i: 1
    }
  }
  attr {
    key: "ellipsis_mask"
    value {
      i: 0
    }
  }
  attr {
    key: "end_mask"
    value {
      i: 0
    }
  }
  attr {
    key: "new_axis_mask"
    value {
      i: 0
    }
  }
  attr {
    key: "shrink_axis_mask"
    value {
      i: 0
    }
  }
}
node {
  name: "second_order_feature_interaction/boolean_mask/Shape_2"
  op: "Const"
  attr {
    key: "dtype"
    value {
      type: DT_INT32
    }
  }
  attr {
    key: "value"
    value {
      tensor {
        dtype: DT_INT32
        tensor_shape {
          dim {
            size: 3
          }
        }
        tensor_content: "\000\001\000\000\033\000\000\000\033\000\000\000"
      }
    }
  }
}
node {
  name: "second_order_feature_interaction/boolean_mask/strided_slice_2/stack"
  op: "Const"
  attr {
    key: "dtype"
    value {
      type: DT_INT32
    }
  }
  attr {
    key: "value"
    value {
      tensor {
        dtype: DT_INT32
        tensor_shape {
          dim {
            size: 1
          }
        }
        int_val: 3
      }
    }
  }
}
node {
  name: "second_order_feature_interaction/boolean_mask/strided_slice_2/stack_1"
  op: "Const"
  attr {
    key: "dtype"
    value {
      type: DT_INT32
    }
  }
  attr {
    key: "value"
    value {
      tensor {
        dtype: DT_INT32
        tensor_shape {
          dim {
            size: 1
          }
        }
        int_val: 0
      }
    }
  }
}
node {
  name: "second_order_feature_interaction/boolean_mask/strided_slice_2/stack_2"
  op: "Const"
  attr {
    key: "dtype"
    value {
      type: DT_INT32
    }
  }
  attr {
    key: "value"
    value {
      tensor {
        dtype: DT_INT32
        tensor_shape {
          dim {
            size: 1
          }
        }
        int_val: 1
      }
    }
  }
}
node {
  name: "second_order_feature_interaction/boolean_mask/strided_slice_2"
  op: "StridedSlice"
  input: "second_order_feature_interaction/boolean_mask/Shape_2"
  input: "second_order_feature_interaction/boolean_mask/strided_slice_2/stack"
  input: "second_order_feature_interaction/boolean_mask/strided_slice_2/stack_1"
  input: "second_order_feature_interaction/boolean_mask/strided_slice_2/stack_2"
  attr {
    key: "Index"
    value {
      type: DT_INT32
    }
  }
  attr {
    key: "T"
    value {
      type: DT_INT32
    }
  }
  attr {
    key: "begin_mask"
    value {
      i: 0
    }
  }
  attr {
    key: "ellipsis_mask"
    value {
      i: 0
    }
  }
  attr {
    key: "end_mask"
    value {
      i: 1
    }
  }
  attr {
    key: "new_axis_mask"
    value {
      i: 0
    }
  }
  attr {
    key: "shrink_axis_mask"
    value {
      i: 0
    }
  }
}
node {
  name: "second_order_feature_interaction/boolean_mask/concat/values_1"
  op: "Pack"
  input: "second_order_feature_interaction/boolean_mask/Prod"
  attr {
    key: "N"
    value {
      i: 1
    }
  }
  attr {
    key: "T"
    value {
      type: DT_INT32
    }
  }
  attr {
    key: "axis"
    value {
      i: 0
    }
  }
}
node {
  name: "second_order_feature_interaction/boolean_mask/concat/axis"
  op: "Const"
  attr {
    key: "dtype"
    value {
      type: DT_INT32
    }
  }
  attr {
    key: "value"
    value {
      tensor {
        dtype: DT_INT32
        tensor_shape {
        }
        int_val: 0
      }
    }
  }
}
node {
  name: "second_order_feature_interaction/boolean_mask/concat"
  op: "ConcatV2"
  input: "second_order_feature_interaction/boolean_mask/strided_slice_1"
  input: "second_order_feature_interaction/boolean_mask/concat/values_1"
  input: "second_order_feature_interaction/boolean_mask/strided_slice_2"
  input: "second_order_feature_interaction/boolean_mask/concat/axis"
  attr {
    key: "N"
    value {
      i: 3
    }
  }
  attr {
    key: "T"
    value {
      type: DT_INT32
    }
  }
  attr {
    key: "Tidx"
    value {
      type: DT_INT32
    }
  }
}
node {
  name: "second_order_feature_interaction/boolean_mask/Reshape"
  op: "Reshape"
  input: "second_order_feature_interaction/MatMul"
  input: "second_order_feature_interaction/boolean_mask/concat"
  attr {
    key: "T"
    value {
      type: DT_FLOAT
    }
  }
  attr {
    key: "Tshape"
    value {
      type: DT_INT32
    }
  }
}
node {
  name: "second_order_feature_interaction/boolean_mask/Reshape_1/shape"
  op: "Const"
  attr {
    key: "dtype"
    value {
      type: DT_INT32
    }
  }
  attr {
    key: "value"
    value {
      tensor {
        dtype: DT_INT32
        tensor_shape {
          dim {
            size: 1
          }
        }
        int_val: -1
      }
    }
  }
}
node {
  name: "second_order_feature_interaction/boolean_mask/Reshape_1"
  op: "Reshape"
  input: "second_order_feature_interaction/sub"
  input: "second_order_feature_interaction/boolean_mask/Reshape_1/shape"
  attr {
    key: "T"
    value {
      type: DT_FLOAT
    }
  }
  attr {
    key: "Tshape"
    value {
      type: DT_INT32
    }
  }
}
node {
  name: "second_order_feature_interaction/boolean_mask/Where"
  op: "Where"
  input: "second_order_feature_interaction/boolean_mask/Reshape_1"
  attr {
    key: "T"
    value {
      type: DT_FLOAT
    }
  }
}
node {
  name: "second_order_feature_interaction/boolean_mask/Squeeze"
  op: "Squeeze"
  input: "second_order_feature_interaction/boolean_mask/Where"
  attr {
    key: "T"
    value {
      type: DT_INT64
    }
  }
  attr {
    key: "squeeze_dims"
    value {
      list {
        i: 1
      }
    }
  }
}
node {
  name: "second_order_feature_interaction/boolean_mask/GatherV2/axis"
  op: "Const"
  attr {
    key: "dtype"
    value {
      type: DT_INT32
    }
  }
  attr {
    key: "value"
    value {
      tensor {
        dtype: DT_INT32
        tensor_shape {
        }
        int_val: 0
      }
    }
  }
}
node {
  name: "second_order_feature_interaction/boolean_mask/GatherV2"
  op: "GatherV2"
  input: "second_order_feature_interaction/boolean_mask/Reshape"
  input: "second_order_feature_interaction/boolean_mask/Squeeze"
  input: "second_order_feature_interaction/boolean_mask/GatherV2/axis"
  attr {
    key: "Taxis"
    value {
      type: DT_INT32
    }
  }
  attr {
    key: "Tindices"
    value {
      type: DT_INT64
    }
  }
  attr {
    key: "Tparams"
    value {
      type: DT_FLOAT
    }
  }
  attr {
    key: "batch_dims"
    value {
      i: 0
    }
  }
}
node {
  name: "second_order_feature_interaction/Reshape/shape/1"
  op: "Const"
  attr {
    key: "dtype"
    value {
      type: DT_INT32
    }
  }
  attr {
    key: "value"
    value {
      tensor {
        dtype: DT_INT32
        tensor_shape {
        }
        int_val: 351
      }
    }
  }
}
node {
  name: "second_order_feature_interaction/Reshape/shape"
  op: "Pack"
  input: "second_order_feature_interaction/strided_slice"
  input: "second_order_feature_interaction/Reshape/shape/1"
  attr {
    key: "N"
    value {
      i: 2
    }
  }
  attr {
    key: "T"
    value {
      type: DT_INT32
    }
  }
  attr {
    key: "axis"
    value {
      i: 0
    }
  }
}
node {
  name: "second_order_feature_interaction/Reshape"
  op: "Reshape"
  input: "second_order_feature_interaction/boolean_mask/GatherV2"
  input: "second_order_feature_interaction/Reshape/shape"
  attr {
    key: "T"
    value {
      type: DT_FLOAT
    }
  }
  attr {
    key: "Tshape"
    value {
      type: DT_INT32
    }
  }
}
node {
  name: "concat/axis"
  op: "Const"
  attr {
    key: "dtype"
    value {
      type: DT_INT32
    }
  }
  attr {
    key: "value"
    value {
      tensor {
        dtype: DT_INT32
        tensor_shape {
        }
        int_val: 1
      }
    }
  }
}
node {
  name: "concat"
  op: "ConcatV2"
  input: "sequential/dense_3/Relu"
  input: "second_order_feature_interaction/Reshape"
  input: "concat/axis"
  attr {
    key: "N"
    value {
      i: 2
    }
  }
  attr {
    key: "T"
    value {
      type: DT_FLOAT
    }
  }
  attr {
    key: "Tidx"
    value {
      type: DT_INT32
    }
  }
}
node {
  name: "sequential_1/dense_4/kernel/Initializer/random_uniform/shape"
  op: "Const"
  attr {
    key: "_class"
    value {
      list {
        s: "loc:@sequential_1/dense_4/kernel"
      }
    }
  }
  attr {
    key: "dtype"
    value {
      type: DT_INT32
    }
  }
  attr {
    key: "value"
    value {
      tensor {
        dtype: DT_INT32
        tensor_shape {
          dim {
            size: 2
          }
        }
        tensor_content: "_\002\000\000\000\002\000\000"
      }
    }
  }
}
node {
  name: "sequential_1/dense_4/kernel/Initializer/random_uniform/min"
  op: "Const"
  attr {
    key: "_class"
    value {
      list {
        s: "loc:@sequential_1/dense_4/kernel"
      }
    }
  }
  attr {
    key: "dtype"
    value {
      type: DT_FLOAT
    }
  }
  attr {
    key: "value"
    value {
      tensor {
        dtype: DT_FLOAT
        tensor_shape {
        }
        float_val: -0.07322520017623901
      }
    }
  }
}
node {
  name: "sequential_1/dense_4/kernel/Initializer/random_uniform/max"
  op: "Const"
  attr {
    key: "_class"
    value {
      list {
        s: "loc:@sequential_1/dense_4/kernel"
      }
    }
  }
  attr {
    key: "dtype"
    value {
      type: DT_FLOAT
    }
  }
  attr {
    key: "value"
    value {
      tensor {
        dtype: DT_FLOAT
        tensor_shape {
        }
        float_val: 0.07322520017623901
      }
    }
  }
}
node {
  name: "sequential_1/dense_4/kernel/Initializer/random_uniform/RandomUniform"
  op: "RandomUniform"
  input: "sequential_1/dense_4/kernel/Initializer/random_uniform/shape"
  attr {
    key: "T"
    value {
      type: DT_INT32
    }
  }
  attr {
    key: "_class"
    value {
      list {
        s: "loc:@sequential_1/dense_4/kernel"
      }
    }
  }
  attr {
    key: "dtype"
    value {
      type: DT_FLOAT
    }
  }
  attr {
    key: "seed"
    value {
      i: 0
    }
  }
  attr {
    key: "seed2"
    value {
      i: 0
    }
  }
}
node {
  name: "sequential_1/dense_4/kernel/Initializer/random_uniform/sub"
  op: "Sub"
  input: "sequential_1/dense_4/kernel/Initializer/random_uniform/max"
  input: "sequential_1/dense_4/kernel/Initializer/random_uniform/min"
  attr {
    key: "T"
    value {
      type: DT_FLOAT
    }
  }
  attr {
    key: "_class"
    value {
      list {
        s: "loc:@sequential_1/dense_4/kernel"
      }
    }
  }
}
node {
  name: "sequential_1/dense_4/kernel/Initializer/random_uniform/mul"
  op: "Mul"
  input: "sequential_1/dense_4/kernel/Initializer/random_uniform/RandomUniform"
  input: "sequential_1/dense_4/kernel/Initializer/random_uniform/sub"
  attr {
    key: "T"
    value {
      type: DT_FLOAT
    }
  }
  attr {
    key: "_class"
    value {
      list {
        s: "loc:@sequential_1/dense_4/kernel"
      }
    }
  }
}
node {
  name: "sequential_1/dense_4/kernel/Initializer/random_uniform"
  op: "Add"
  input: "sequential_1/dense_4/kernel/Initializer/random_uniform/mul"
  input: "sequential_1/dense_4/kernel/Initializer/random_uniform/min"
  attr {
    key: "T"
    value {
      type: DT_FLOAT
    }
  }
  attr {
    key: "_class"
    value {
      list {
        s: "loc:@sequential_1/dense_4/kernel"
      }
    }
  }
}
node {
  name: "sequential_1/dense_4/kernel"
  op: "VarHandleOp"
  attr {
    key: "_class"
    value {
      list {
        s: "loc:@sequential_1/dense_4/kernel"
      }
    }
  }
    
  attr {
    key: "container"
    value {
      s: ""
    }
  }
  attr {
    key: "dtype"
    value {
      type: DT_FLOAT
    }
  }
  attr {
    key: "shape"
    value {
      shape {
        dim {
          size: 607
        }
        dim {
          size: 512
        }
      }
    }
  }
  attr {
    key: "shared_name"
    value {
      s: "sequential_1/dense_4/kernel"
    }
  }
}
node {
  name: "sequential_1/dense_4/kernel/IsInitialized/VarIsInitializedOp"
  op: "VarIsInitializedOp"
  input: "sequential_1/dense_4/kernel"
}
node {
  name: "sequential_1/dense_4/kernel/Assign"
  op: "AssignVariableOp"
  input: "sequential_1/dense_4/kernel"
  input: "sequential_1/dense_4/kernel/Initializer/random_uniform"
  attr {
    key: "dtype"
    value {
      type: DT_FLOAT
    }
  }
}
node {
  name: "sequential_1/dense_4/kernel/Read/ReadVariableOp"
  op: "ReadVariableOp"
  input: "sequential_1/dense_4/kernel"
  attr {
    key: "dtype"
    value {
      type: DT_FLOAT
    }
  }
}
node {
  name: "sequential_1/dense_4/bias/Initializer/zeros"
  op: "Const"
  attr {
    key: "_class"
    value {
      list {
        s: "loc:@sequential_1/dense_4/bias"
      }
    }
  }
  attr {
    key: "dtype"
    value {
      type: DT_FLOAT
    }
  }
  attr {
    key: "value"
    value {
      tensor {
        dtype: DT_FLOAT
        tensor_shape {
          dim {
            size: 512
          }
        }
        float_val: 0.0
      }
    }
  }
}
node {
  name: "sequential_1/dense_4/bias"
  op: "VarHandleOp"
  attr {
    key: "_class"
    value {
      list {
        s: "loc:@sequential_1/dense_4/bias"
      }
    }
  }
    
  attr {
    key: "container"
    value {
      s: ""
    }
  }
  attr {
    key: "dtype"
    value {
      type: DT_FLOAT
    }
  }
  attr {
    key: "shape"
    value {
      shape {
        dim {
          size: 512
        }
      }
    }
  }
  attr {
    key: "shared_name"
    value {
      s: "sequential_1/dense_4/bias"
    }
  }
}
node {
  name: "sequential_1/dense_4/bias/IsInitialized/VarIsInitializedOp"
  op: "VarIsInitializedOp"
  input: "sequential_1/dense_4/bias"
}
node {
  name: "sequential_1/dense_4/bias/Assign"
  op: "AssignVariableOp"
  input: "sequential_1/dense_4/bias"
  input: "sequential_1/dense_4/bias/Initializer/zeros"
  attr {
    key: "dtype"
    value {
      type: DT_FLOAT
    }
  }
}
node {
  name: "sequential_1/dense_4/bias/Read/ReadVariableOp"
  op: "ReadVariableOp"
  input: "sequential_1/dense_4/bias"
  attr {
    key: "dtype"
    value {
      type: DT_FLOAT
    }
  }
}
node {
  name: "sequential_1/dense_4/MatMul/ReadVariableOp"
  op: "ReadVariableOp"
  input: "sequential_1/dense_4/kernel"
  attr {
    key: "dtype"
    value {
      type: DT_FLOAT
    }
  }
}
node {
  name: "sequential_1/dense_4/MatMul"
  op: "MatMul"
  input: "concat"
  input: "sequential_1/dense_4/MatMul/ReadVariableOp"
  attr {
    key: "T"
    value {
      type: DT_FLOAT
    }
  }
  attr {
    key: "transpose_a"
    value {
      b: false
    }
  }
  attr {
    key: "transpose_b"
    value {
      b: false
    }
  }
}
node {
  name: "sequential_1/dense_4/BiasAdd/ReadVariableOp"
  op: "ReadVariableOp"
  input: "sequential_1/dense_4/bias"
  attr {
    key: "dtype"
    value {
      type: DT_FLOAT
    }
  }
}
node {
  name: "sequential_1/dense_4/BiasAdd"
  op: "BiasAdd"
  input: "sequential_1/dense_4/MatMul"
  input: "sequential_1/dense_4/BiasAdd/ReadVariableOp"
  attr {
    key: "T"
    value {
      type: DT_FLOAT
    }
  }
  attr {
    key: "data_format"
    value {
      s: "NHWC"
    }
  }
}
node {
  name: "sequential_1/dense_4/Relu"
  op: "Relu"
  input: "sequential_1/dense_4/BiasAdd"
  attr {
    key: "T"
    value {
      type: DT_FLOAT
    }
  }
}
node {
  name: "sequential_1/dense_5/kernel/Initializer/random_uniform/shape"
  op: "Const"
  attr {
    key: "_class"
    value {
      list {
        s: "loc:@sequential_1/dense_5/kernel"
      }
    }
  }
  attr {
    key: "dtype"
    value {
      type: DT_INT32
    }
  }
  attr {
    key: "value"
    value {
      tensor {
        dtype: DT_INT32
        tensor_shape {
          dim {
            size: 2
          }
        }
        tensor_content: "\000\002\000\000\000\001\000\000"
      }
    }
  }
}
node {
  name: "sequential_1/dense_5/kernel/Initializer/random_uniform/min"
  op: "Const"
  attr {
    key: "_class"
    value {
      list {
        s: "loc:@sequential_1/dense_5/kernel"
      }
    }
  }
  attr {
    key: "dtype"
    value {
      type: DT_FLOAT
    }
  }
  attr {
    key: "value"
    value {
      tensor {
        dtype: DT_FLOAT
        tensor_shape {
        }
        float_val: -0.0883883461356163
      }
    }
  }
}
node {
  name: "sequential_1/dense_5/kernel/Initializer/random_uniform/max"
  op: "Const"
  attr {
    key: "_class"
    value {
      list {
        s: "loc:@sequential_1/dense_5/kernel"
      }
    }
  }
  attr {
    key: "dtype"
    value {
      type: DT_FLOAT
    }
  }
  attr {
    key: "value"
    value {
      tensor {
        dtype: DT_FLOAT
        tensor_shape {
        }
        float_val: 0.0883883461356163
      }
    }
  }
}
node {
  name: "sequential_1/dense_5/kernel/Initializer/random_uniform/RandomUniform"
  op: "RandomUniform"
  input: "sequential_1/dense_5/kernel/Initializer/random_uniform/shape"
  attr {
    key: "T"
    value {
      type: DT_INT32
    }
  }
  attr {
    key: "_class"
    value {
      list {
        s: "loc:@sequential_1/dense_5/kernel"
      }
    }
  }
  attr {
    key: "dtype"
    value {
      type: DT_FLOAT
    }
  }
  attr {
    key: "seed"
    value {
      i: 0
    }
  }
  attr {
    key: "seed2"
    value {
      i: 0
    }
  }
}
node {
  name: "sequential_1/dense_5/kernel/Initializer/random_uniform/sub"
  op: "Sub"
  input: "sequential_1/dense_5/kernel/Initializer/random_uniform/max"
  input: "sequential_1/dense_5/kernel/Initializer/random_uniform/min"
  attr {
    key: "T"
    value {
      type: DT_FLOAT
    }
  }
  attr {
    key: "_class"
    value {
      list {
        s: "loc:@sequential_1/dense_5/kernel"
      }
    }
  }
}
node {
  name: "sequential_1/dense_5/kernel/Initializer/random_uniform/mul"
  op: "Mul"
  input: "sequential_1/dense_5/kernel/Initializer/random_uniform/RandomUniform"
  input: "sequential_1/dense_5/kernel/Initializer/random_uniform/sub"
  attr {
    key: "T"
    value {
      type: DT_FLOAT
    }
  }
  attr {
    key: "_class"
    value {
      list {
        s: "loc:@sequential_1/dense_5/kernel"
      }
    }
  }
}
node {
  name: "sequential_1/dense_5/kernel/Initializer/random_uniform"
  op: "Add"
  input: "sequential_1/dense_5/kernel/Initializer/random_uniform/mul"
  input: "sequential_1/dense_5/kernel/Initializer/random_uniform/min"
  attr {
    key: "T"
    value {
      type: DT_FLOAT
    }
  }
  attr {
    key: "_class"
    value {
      list {
        s: "loc:@sequential_1/dense_5/kernel"
      }
    }
  }
}
node {
  name: "sequential_1/dense_5/kernel"
  op: "VarHandleOp"
  attr {
    key: "_class"
    value {
      list {
        s: "loc:@sequential_1/dense_5/kernel"
      }
    }
  }
    
  attr {
    key: "container"
    value {
      s: ""
    }
  }
  attr {
    key: "dtype"
    value {
      type: DT_FLOAT
    }
  }
  attr {
    key: "shape"
    value {
      shape {
        dim {
          size: 512
        }
        dim {
          size: 256
        }
      }
    }
  }
  attr {
    key: "shared_name"
    value {
      s: "sequential_1/dense_5/kernel"
    }
  }
}
node {
  name: "sequential_1/dense_5/kernel/IsInitialized/VarIsInitializedOp"
  op: "VarIsInitializedOp"
  input: "sequential_1/dense_5/kernel"
}
node {
  name: "sequential_1/dense_5/kernel/Assign"
  op: "AssignVariableOp"
  input: "sequential_1/dense_5/kernel"
  input: "sequential_1/dense_5/kernel/Initializer/random_uniform"
  attr {
    key: "dtype"
    value {
      type: DT_FLOAT
    }
  }
}
node {
  name: "sequential_1/dense_5/kernel/Read/ReadVariableOp"
  op: "ReadVariableOp"
  input: "sequential_1/dense_5/kernel"
  attr {
    key: "dtype"
    value {
      type: DT_FLOAT
    }
  }
}
node {
  name: "sequential_1/dense_5/bias/Initializer/zeros"
  op: "Const"
  attr {
    key: "_class"
    value {
      list {
        s: "loc:@sequential_1/dense_5/bias"
      }
    }
  }
  attr {
    key: "dtype"
    value {
      type: DT_FLOAT
    }
  }
  attr {
    key: "value"
    value {
      tensor {
        dtype: DT_FLOAT
        tensor_shape {
          dim {
            size: 256
          }
        }
        float_val: 0.0
      }
    }
  }
}
node {
  name: "sequential_1/dense_5/bias"
  op: "VarHandleOp"
  attr {
    key: "_class"
    value {
      list {
        s: "loc:@sequential_1/dense_5/bias"
      }
    }
  }
    
  attr {
    key: "container"
    value {
      s: ""
    }
  }
  attr {
    key: "dtype"
    value {
      type: DT_FLOAT
    }
  }
  attr {
    key: "shape"
    value {
      shape {
        dim {
          size: 256
        }
      }
    }
  }
  attr {
    key: "shared_name"
    value {
      s: "sequential_1/dense_5/bias"
    }
  }
}
node {
  name: "sequential_1/dense_5/bias/IsInitialized/VarIsInitializedOp"
  op: "VarIsInitializedOp"
  input: "sequential_1/dense_5/bias"
}
node {
  name: "sequential_1/dense_5/bias/Assign"
  op: "AssignVariableOp"
  input: "sequential_1/dense_5/bias"
  input: "sequential_1/dense_5/bias/Initializer/zeros"
  attr {
    key: "dtype"
    value {
      type: DT_FLOAT
    }
  }
}
node {
  name: "sequential_1/dense_5/bias/Read/ReadVariableOp"
  op: "ReadVariableOp"
  input: "sequential_1/dense_5/bias"
  attr {
    key: "dtype"
    value {
      type: DT_FLOAT
    }
  }
}
node {
  name: "sequential_1/dense_5/MatMul/ReadVariableOp"
  op: "ReadVariableOp"
  input: "sequential_1/dense_5/kernel"
  attr {
    key: "dtype"
    value {
      type: DT_FLOAT
    }
  }
}
node {
  name: "sequential_1/dense_5/MatMul"
  op: "MatMul"
  input: "sequential_1/dense_4/Relu"
  input: "sequential_1/dense_5/MatMul/ReadVariableOp"
  attr {
    key: "T"
    value {
      type: DT_FLOAT
    }
  }
  attr {
    key: "transpose_a"
    value {
      b: false
    }
  }
  attr {
    key: "transpose_b"
    value {
      b: false
    }
  }
}
node {
  name: "sequential_1/dense_5/BiasAdd/ReadVariableOp"
  op: "ReadVariableOp"
  input: "sequential_1/dense_5/bias"
  attr {
    key: "dtype"
    value {
      type: DT_FLOAT
    }
  }
}
node {
  name: "sequential_1/dense_5/BiasAdd"
  op: "BiasAdd"
  input: "sequential_1/dense_5/MatMul"
  input: "sequential_1/dense_5/BiasAdd/ReadVariableOp"
  attr {
    key: "T"
    value {
      type: DT_FLOAT
    }
  }
  attr {
    key: "data_format"
    value {
      s: "NHWC"
    }
  }
}
node {
  name: "sequential_1/dense_5/Relu"
  op: "Relu"
  input: "sequential_1/dense_5/BiasAdd"
  attr {
    key: "T"
    value {
      type: DT_FLOAT
    }
  }
}
node {
  name: "sequential_1/dense_6/kernel/Initializer/random_uniform/shape"
  op: "Const"
  attr {
    key: "_class"
    value {
      list {
        s: "loc:@sequential_1/dense_6/kernel"
      }
    }
  }
  attr {
    key: "dtype"
    value {
      type: DT_INT32
    }
  }
  attr {
    key: "value"
    value {
      tensor {
        dtype: DT_INT32
        tensor_shape {
          dim {
            size: 2
          }
        }
        tensor_content: "\000\001\000\000\002\000\000\000"
      }
    }
  }
}
node {
  name: "sequential_1/dense_6/kernel/Initializer/random_uniform/min"
  op: "Const"
  attr {
    key: "_class"
    value {
      list {
        s: "loc:@sequential_1/dense_6/kernel"
      }
    }
  }
  attr {
    key: "dtype"
    value {
      type: DT_FLOAT
    }
  }
  attr {
    key: "value"
    value {
      tensor {
        dtype: DT_FLOAT
        tensor_shape {
        }
        float_val: -0.15249857306480408
      }
    }
  }
}
node {
  name: "sequential_1/dense_6/kernel/Initializer/random_uniform/max"
  op: "Const"
  attr {
    key: "_class"
    value {
      list {
        s: "loc:@sequential_1/dense_6/kernel"
      }
    }
  }
  attr {
    key: "dtype"
    value {
      type: DT_FLOAT
    }
  }
  attr {
    key: "value"
    value {
      tensor {
        dtype: DT_FLOAT
        tensor_shape {
        }
        float_val: 0.15249857306480408
      }
    }
  }
}
node {
  name: "sequential_1/dense_6/kernel/Initializer/random_uniform/RandomUniform"
  op: "RandomUniform"
  input: "sequential_1/dense_6/kernel/Initializer/random_uniform/shape"
  attr {
    key: "T"
    value {
      type: DT_INT32
    }
  }
  attr {
    key: "_class"
    value {
      list {
        s: "loc:@sequential_1/dense_6/kernel"
      }
    }
  }
  attr {
    key: "dtype"
    value {
      type: DT_FLOAT
    }
  }
  attr {
    key: "seed"
    value {
      i: 0
    }
  }
  attr {
    key: "seed2"
    value {
      i: 0
    }
  }
}
node {
  name: "sequential_1/dense_6/kernel/Initializer/random_uniform/sub"
  op: "Sub"
  input: "sequential_1/dense_6/kernel/Initializer/random_uniform/max"
  input: "sequential_1/dense_6/kernel/Initializer/random_uniform/min"
  attr {
    key: "T"
    value {
      type: DT_FLOAT
    }
  }
  attr {
    key: "_class"
    value {
      list {
        s: "loc:@sequential_1/dense_6/kernel"
      }
    }
  }
}
node {
  name: "sequential_1/dense_6/kernel/Initializer/random_uniform/mul"
  op: "Mul"
  input: "sequential_1/dense_6/kernel/Initializer/random_uniform/RandomUniform"
  input: "sequential_1/dense_6/kernel/Initializer/random_uniform/sub"
  attr {
    key: "T"
    value {
      type: DT_FLOAT
    }
  }
  attr {
    key: "_class"
    value {
      list {
        s: "loc:@sequential_1/dense_6/kernel"
      }
    }
  }
}
node {
  name: "sequential_1/dense_6/kernel/Initializer/random_uniform"
  op: "Add"
  input: "sequential_1/dense_6/kernel/Initializer/random_uniform/mul"
  input: "sequential_1/dense_6/kernel/Initializer/random_uniform/min"
  attr {
    key: "T"
    value {
      type: DT_FLOAT
    }
  }
  attr {
    key: "_class"
    value {
      list {
        s: "loc:@sequential_1/dense_6/kernel"
      }
    }
  }
}
node {
  name: "sequential_1/dense_6/kernel"
  op: "VarHandleOp"
  attr {
    key: "_class"
    value {
      list {
        s: "loc:@sequential_1/dense_6/kernel"
      }
    }
  }
    
  attr {
    key: "container"
    value {
      s: ""
    }
  }
  attr {
    key: "dtype"
    value {
      type: DT_FLOAT
    }
  }
  attr {
    key: "shape"
    value {
      shape {
        dim {
          size: 256
        }
        dim {
          size: 2
        }
      }
    }
  }
  attr {
    key: "shared_name"
    value {
      s: "sequential_1/dense_6/kernel"
    }
  }
}
node {
  name: "sequential_1/dense_6/kernel/IsInitialized/VarIsInitializedOp"
  op: "VarIsInitializedOp"
  input: "sequential_1/dense_6/kernel"
}
node {
  name: "sequential_1/dense_6/kernel/Assign"
  op: "AssignVariableOp"
  input: "sequential_1/dense_6/kernel"
  input: "sequential_1/dense_6/kernel/Initializer/random_uniform"
  attr {
    key: "dtype"
    value {
      type: DT_FLOAT
    }
  }
}
node {
  name: "sequential_1/dense_6/kernel/Read/ReadVariableOp"
  op: "ReadVariableOp"
  input: "sequential_1/dense_6/kernel"
  attr {
    key: "dtype"
    value {
      type: DT_FLOAT
    }
  }
}
node {
  name: "sequential_1/dense_6/bias/Initializer/zeros"
  op: "Const"
  attr {
    key: "_class"
    value {
      list {
        s: "loc:@sequential_1/dense_6/bias"
      }
    }
  }
  attr {
    key: "dtype"
    value {
      type: DT_FLOAT
    }
  }
  attr {
    key: "value"
    value {
      tensor {
        dtype: DT_FLOAT
        tensor_shape {
          dim {
            size: 2
          }
        }
        float_val: 0.0
      }
    }
  }
}
node {
  name: "sequential_1/dense_6/bias"
  op: "VarHandleOp"
  attr {
    key: "_class"
    value {
      list {
        s: "loc:@sequential_1/dense_6/bias"
      }
    }
  }
    
  attr {
    key: "container"
    value {
      s: ""
    }
  }
  attr {
    key: "dtype"
    value {
      type: DT_FLOAT
    }
  }
  attr {
    key: "shape"
    value {
      shape {
        dim {
          size: 2
        }
      }
    }
  }
  attr {
    key: "shared_name"
    value {
      s: "sequential_1/dense_6/bias"
    }
  }
}
node {
  name: "sequential_1/dense_6/bias/IsInitialized/VarIsInitializedOp"
  op: "VarIsInitializedOp"
  input: "sequential_1/dense_6/bias"
}
node {
  name: "sequential_1/dense_6/bias/Assign"
  op: "AssignVariableOp"
  input: "sequential_1/dense_6/bias"
  input: "sequential_1/dense_6/bias/Initializer/zeros"
  attr {
    key: "dtype"
    value {
      type: DT_FLOAT
    }
  }
}
node {
  name: "sequential_1/dense_6/bias/Read/ReadVariableOp"
  op: "ReadVariableOp"
  input: "sequential_1/dense_6/bias"
  attr {
    key: "dtype"
    value {
      type: DT_FLOAT
    }
  }
}
node {
  name: "sequential_1/dense_6/MatMul/ReadVariableOp"
  op: "ReadVariableOp"
  input: "sequential_1/dense_6/kernel"
  attr {
    key: "dtype"
    value {
      type: DT_FLOAT
    }
  }
}
node {
  name: "sequential_1/dense_6/MatMul"
  op: "MatMul"
  input: "sequential_1/dense_5/Relu"
  input: "sequential_1/dense_6/MatMul/ReadVariableOp"
  attr {
    key: "T"
    value {
      type: DT_FLOAT
    }
  }
  attr {
    key: "transpose_a"
    value {
      b: false
    }
  }
  attr {
    key: "transpose_b"
    value {
      b: false
    }
  }
}
node {
  name: "sequential_1/dense_6/BiasAdd/ReadVariableOp"
  op: "ReadVariableOp"
  input: "sequential_1/dense_6/bias"
  attr {
    key: "dtype"
    value {
      type: DT_FLOAT
    }
  }
}
node {
  name: "sequential_1/dense_6/BiasAdd"
  op: "BiasAdd"
  input: "sequential_1/dense_6/MatMul"
  input: "sequential_1/dense_6/BiasAdd/ReadVariableOp"
  attr {
    key: "T"
    value {
      type: DT_FLOAT
    }
  }
  attr {
    key: "data_format"
    value {
      s: "NHWC"
    }
  }
}
node {
  name: "sequential_1/dense_6/Sigmoid"
  op: "Sigmoid"
  input: "sequential_1/dense_6/BiasAdd"
  attr {
    key: "T"
    value {
      type: DT_FLOAT
    }
  }
}
node {
  name: "out"
  op: "Identity"
  input: "sequential_1/dense_6/Sigmoid"
  attr {
    key: "T"
    value {
      type: DT_FLOAT
    }
  }
}
node {
  name: "init"
  op: "NoOp"
  input: "^embedding/embeddings/Assign"
  input: "^embedding_1/embeddings/Assign"
  input: "^embedding_10/embeddings/Assign"
  input: "^embedding_11/embeddings/Assign"
  input: "^embedding_12/embeddings/Assign"
  input: "^embedding_13/embeddings/Assign"
  input: "^embedding_14/embeddings/Assign"
  input: "^embedding_15/embeddings/Assign"
  input: "^embedding_16/embeddings/Assign"
  input: "^embedding_17/embeddings/Assign"
  input: "^embedding_18/embeddings/Assign"
  input: "^embedding_19/embeddings/Assign"
  input: "^embedding_2/embeddings/Assign"
  input: "^embedding_20/embeddings/Assign"
  input: "^embedding_21/embeddings/Assign"
  input: "^embedding_22/embeddings/Assign"
  input: "^embedding_23/embeddings/Assign"
  input: "^embedding_24/embeddings/Assign"
  input: "^embedding_25/embeddings/Assign"
  input: "^embedding_3/embeddings/Assign"
  input: "^embedding_4/embeddings/Assign"
  input: "^embedding_5/embeddings/Assign"
  input: "^embedding_6/embeddings/Assign"
  input: "^embedding_7/embeddings/Assign"
  input: "^embedding_8/embeddings/Assign"
  input: "^embedding_9/embeddings/Assign"
  input: "^sequential/dense/bias/Assign"
  input: "^sequential/dense/kernel/Assign"
  input: "^sequential/dense_1/bias/Assign"
  input: "^sequential/dense_1/kernel/Assign"
  input: "^sequential/dense_2/bias/Assign"
  input: "^sequential/dense_2/kernel/Assign"
  input: "^sequential/dense_3/bias/Assign"
  input: "^sequential/dense_3/kernel/Assign"
  input: "^sequential_1/dense_4/bias/Assign"
  input: "^sequential_1/dense_4/kernel/Assign"
  input: "^sequential_1/dense_5/bias/Assign"
  input: "^sequential_1/dense_5/kernel/Assign"
  input: "^sequential_1/dense_6/bias/Assign"
  input: "^sequential_1/dense_6/kernel/Assign"
}
versions {
  producer: 561
}
